Model_n_Datasets/SimpleNet_model2_test_1.pth (torch, 588491 bytes, 60 tensors)

weight f4 [8, 1, 7, 7]
00000000: a9d7 733d 339d e5bd 02f4 0ebd 583e 93bd
00000010: be89 8dbc c939 4cbc bab1 463d 8a3f 853d
00000020: ebe0 da3d 6082 783c d3e7 c53d 9af2 18be
00000030: 98fd 043d 641b 443d 4962 bbbd 237c 503d
00000040: 847b 13be 29ee 38bd d2e6 373e 0454 553b
00000050: 1645 3f3d 8e6e 443d 9bca 543d 3b7e f8bb
00000060: c434 993c 201a 393e c309 353e 6e08 b3bd
00000070: c924 b7bd 47e9 83bd a666 2bbe e407 eabd
00000080: f7d9 e03d 59d4 5bbd 1d0a 1d3c 0529 13bb
00000090: 256d 153e dcd4 9e3d 2e0f 183e 5bbb 06bd
000000a0: 0eb3 e43c a0b3 99bd 241b 6c3d 418f 403b
000000b0: 4938 103e f94d 3f3d a73c 483c 95f1 8cbd
000000c0: 8a99 d83d 1da5 15bd f1d8 5abc ff9e 0bbe
000000d0: 9362 11be 0cea 11bd ff04 b23c 98ac dbbd
000000e0: 1ab4 45be cdfd d2bd d83f a6bd 8883 bbbd
000000f0: e48e b9bb 5d62 90bd 2047 e1bd 00a8 3c3d
00000100: 8b78 38be 1133 aabd 04c6 fcbc 6d9e b7bc
00000110: ec24 fe3c 20d5 65bd bda5 0abe 864e aabd
00000120: 786f e7bd 2e9c c6bd 6280 3fbd 8cef 43bd
00000130: 09b4 0fbe ad9d 25be fe48 6fbc 9459 953c
00000140: 3a6f b2ba a107 f1bd b611 60bd dfde 81bd
00000150: dea9 74bd f4d9 8fbd 027c adbd e1bf 0a3d
00000160: a4e2 fe3c c259 26be d603 a73d fd1b 2a3c
00000170: d5b2 18be 84ca c1bd 7076 28bd 2adf 4dbb
00000180: e0d8 05bd cdcb 19be ca88 3b3e b2f9 833c
00000190: ce47 8fbd 8520 383d 2ea2 acbb 27f5 08bd
000001a0: 726c d6bd 19a7 813c 86c1 c73d a743 8dbd
000001b0: f6b8 3abe d7e3 93bd 8ffc 9d3d 22bb 35bd
000001c0: 4897 b6bd ec2d a23c a65b 843d 7afb f23d
000001d0: d860 873c 7c2d bebd 4151 13be 1941 1bbd
000001e0: b758 a63d 4a9b f13c 9d35 523d 8fcb 663d
000001f0: ac3c 053c 71a9 68bc 61ae a13d 28ab b33d
00000200: dbe2 5fbd 9cfb 99bd a9c5 d43c ee0b 96bb
00000210: 85f9 d03d 76ff aa3d 1d30 5f3a 3882 8fbd
00000220: b9c9 9c3c 5ae2 1fbd 74f9 7fbc 11ea c23d
00000230: 67cf acbd 1664 cbbc 42dd 3abe 7b2e f2bd
00000240: 255e 22bd 121c b9bc 7985 153d 9dcc d3bd
00000250: 05d4 a2bb 0e81 8a3d 0d9a a0bd 961c 203d
00000260: d1c4 873d 9d31 a23c 7e06 ef3a aa97 503d
00000270: 29e7 d1bd bb7a b0bd 1366 8bbc 634b 0fbe
00000280: 7841 103e 7a68 4e3d 3643 fdbd 7a52 8cbd
00000290: e7f5 b8bd c45b c9bc 6441 193c cfc9 e23d
000002a0: dcee dfbd 9f9a 9ebc 22cf e5bc 2b05 213c
000002b0: 025d 1f3d 392a ec3d 9458 e33d a82c ee3c
000002c0: 99aa 6cbc 2fff 5a3d cbca ed3c 7a8a 563a
000002d0: 0a07 f03d fa76 afbc 3e5a 123d 853d 69bd
000002e0: 1086 f83d d33c 693e 26ee 29bd 36c9 04bd
000002f0: 6064 3ebd 9fee 07bd 4828 e3bc 44e2 143c
00000300: 37ba ca3c b278 f53d 872d 58bd 80d5 1ebe
00000310: 70b5 74be 6f1b 07be 586a c03b c879 e5bb
00000320: ec19 4fbd 50f8 193d 3b6b 48bd 817d 31be
00000330: b1e2 df3d 51df 903d 73fe 0b3e 88f7 b93d
00000340: 6869 893c bb8d 2a3b b56d 0a3d 007c 8fbd
00000350: 3245 1dbe 0fe7 8fbe 47ad f83c 7d2e 26bc
00000360: 5436 12be 5b47 69bd 8506 1ebd 49b3 6d3b
00000370: e2d1 bcbd 8d5e a73c c7ab 25bd 18ef acbc
00000380: 3f78 9a3d 7a62 173d ae0a 1f3d 61f1 9ebd
00000390: b2a6 c0bc 7967 a53d cd98 83bd da7f 4fbc
000003a0: c880 a93d eb1b 2abd c355 99bd bb9e 83bd
000003b0: 3cc2 35bd 1b06 cd3d a649 61bb d135 aabd
000003c0: a9ce fbbd a203 a3bd 826a 12bd 2be4 47bc
000003d0: 9968 fa3d 62af 83bd b1ac 063d 080f 87bd
000003e0: 9bad d1bd b6ac 7b3c f438 20be ba46 b8bd
000003f0: e3de 16be 9182 06bd 522d 52be bd19 cdbd
0.05953184 -0.11211624 -0.034900673 -0.071896255 -0.017277595 -0.012464949 0.048509337 0.0650626
0.10687431 0.015167803 0.096633576 -0.14936295 0.03246841 0.047877684 -0.09149606 0.050899636
-0.14402586 -0.045149002 0.17959145 0.0032551298 0.046696745 0.047956996 0.051951032 -0.007583407
0.018701918 0.18076372 0.17679505 -0.08741842 -0.08942563 -0.064409785 -0.16738376 -0.11427286
0.109790735 -0.053669307 0.009584931 -0.002245487 0.14592417 0.077554435 0.1484954 -0.03289352
0.027917411 -0.07504964 0.05764307 0.002938226 0.14083971 0.04670522 0.012221492 -0.068820156
0.1057616 -0.036534417 -0.013357387 -0.13634871 -0.1419776 -0.035623595 0.021730898 -0.10726279
-0.19306985 -0.10302315 -0.08117646 -0.09155947 -0.005662786 -0.07050011 -0.10999894 0.046058655
-0.18014733 -0.083105214 -0.03085614 -0.02241441 0.031023465 -0.056111455 -0.13539787 -0.083157584
-0.11300558 -0.09697758 -0.046753295 -0.04783587 -0.14033522 -0.1617343 -0.014604805 0.01823119
-0.001361347 -0.11769033 -0.05470439 -0.063413374 -0.05973231 -0.07023993 -0.08470918 0.033874396
0.03111393 -0.16245177 0.081550285 0.0103826495 -0.14911969 -0.09462455 -0.041128576 -0.0031413534
-0.03267753 -0.1501915 0.183139 0.016110275 -0.069961175 0.044952888 -0.0052683568 -0.03343692
-0.10469903 0.015826749 0.097537085 -0.06897669 -0.1823462 -0.072211914 0.07714187 -0.044367917
-0.08915573 0.019797288 0.06462793 0.118643716 0.01652567 -0.09286019 -0.14386465 -0.03790388
0.0812239 0.029492993 0.05132066 0.056346472 0.008132141 -0.014200554 0.07894588 0.0877288
-0.054659706 -0.07518694 0.025973158 -0.004579059 0.10203842 0.083495066 0.00085139443 -0.07007259
0.019139158 -0.039034225 -0.015623439 0.09517301 -0.08437996 -0.024827998 -0.18248466 -0.11825272
-0.039640564 -0.022596393 0.036504243 -0.10341761 -0.0049691224 0.067628965 -0.07841883 0.03908976
0.066293366 0.019799048 0.0018236188 0.050925888 -0.102491684 -0.08617159 -0.017016446 -0.13993602
0.14087474 0.050392605 -0.12366335 -0.06851669 -0.09031277 -0.02457989 0.009353969 0.11073648
-0.10934231 -0.019360838 -0.02805287 0.009827892 0.03890706 0.11531491 0.11100879 0.029074028
-0.0144449705 0.05346602 0.029027363 0.0008184087 0.117200926 -0.021419037 0.035730593 -0.056943435
0.121349454 0.22777109 -0.04148688 -0.032418452 -0.046482444 -0.03318655 -0.027729169 0.009087149
0.024746997 0.119859114 -0.052777793 -0.15511131 -0.23897338 -0.13194059 0.005872052 -0.007003043
-0.05056183 0.037590325 -0.048930388 -0.17333032 0.1093191 0.07073844 0.13671283 0.09080416
0.016773894 0.002602442 0.03379603 -0.07006073 -0.15358427 -0.2810597 0.030356063 -0.01014292
-0.14278537 -0.056952816 -0.038580436 0.0036270192 -0.092197195 0.020430828 -0.040447023 -0.021110103
0.07542466 0.03695915 0.038828544 -0.07760883 -0.023516987 0.080763765 -0.06425629 -0.0126647595
0.08276516 -0.04153053 -0.07487061 -0.0642676 -0.04437469 0.1001093 -0.0034376173 -0.08311046
-0.12295277 -0.07959677 -0.035746105 -0.012200396 0.12226982 -0.06429936 0.032879535 -0.06594664
-0.10238191 0.015361002 -0.15646726 -0.08997865 -0.14733462 -0.03283936 -0.20525101 -0.10014675

bias f4 [8]
00000000: 219a 6d3c cfe3 f0bc 9746 e13b 5b54 ad3c
00000010: 61b6 73bc b983 133d 0bfd 47bd 1648 8bbc
0.014502079 -0.029405503 0.00687487 0.021158388 -0.0148750255 0.036014292 -0.048825305 -0.017002147

weight f4 [8]
00000000: c14b 7b3f a226 683f 9979 853f 03a3 853f
00000010: 1ff0 783f 7a8b 7c3f e34d 813f c6a5 823f
0.98162466 0.9068395 1.0427734 1.0440372 0.97241396 0.98650324 1.0101894 1.020684

bias f4 [8]
00000000: e346 cdbb c08a 46bc 871b d73c 6879 953d
00000010: 4eb0 51bd 455a 423d 35cc 0a3d cd1f d4bb
-0.006264554 -0.0121180415 0.026258243 0.07298547 -0.051193528 0.04744937 0.033886153 -0.0064735175

running_mean f4 [8]
00000000: ed46 993e 8691 acbf f614 dfbd 3f0d a83d
00000010: d89d 06bf 9c30 99bf 0565 29bf 569c acbf
0.29936925 -1.348191 -0.1089267 0.082056515 -0.525846 -1.196796 -0.6616977 -1.348521

running_var f4 [8]
00000000: 93b2 0c3d 0d03 0a3e 6e80 e53c 00ee ee3c
00000010: 0e4e 3c3d 0b9b 0d3e 9935 903d f567 093e
0.03434999 0.13477726 0.028015342 0.029166222 0.045972876 0.13828675 0.07041473 0.13418563

weight f4 [16, 8, 5, 5]
00000000: 9bd7 5bbb e1ca 473d bc64 4ebd 07a8 573d
00000010: f9ff 3bbd 1952 b4ba 3aca 043e ca70 0b3e
00000020: 3e45 2b3c 269a 333d d173 613b 3842 cb3c
00000030: 05be 53bd 5706 6bbd ea0b debc 5e3c 6abd
00000040: 1aa5 7fbd ec5e 4fbd eac4 37bc aac0 8dbd
00000050: 7700 d93c 3c46 fbbd e39b 16bd cc07 9b3c
00000060: 4856 8e3c bb4c ecbc 4c98 273c 2e50 d5bc
00000070: c85f 173d 9954 c4bd 8083 c0bc 889e 573c
00000080: 6341 543d a3d4 873d 812b ba3d 6898 8a3d
00000090: 91f5 f6bc 1010 3ebd 24b8 493c 5aa6 06bd
000000a0: 2eb0 7b3c 1b3a b1bc ffb5 4abd dc76 13bd
000000b0: a96c 6ebd 27d1 6dba 02fa c33c 73b9 24be
000000c0: 06ea 46bc 82aa 9f3c d45d 663d 8b27 a8bd
000000d0: 64d6 00bd 8b98 483e 07fe 5bbd 7252 ecbc
000000e0: 1907 1bbe 0b4d 75bd d4a3 62bd 5d88 c13c
000000f0: a12e 863d 7fe4 3cbc ddde 26ba 1a11 98bd
00000100: 39a7 c73c 7007 06bd b3c2 613c 1324 88bc
00000110: 751d 59bd f316 84bc f8b8 f13d 3c1b 443d
00000120: 4d3a 02be 13fe 8bbd 35c9 c13d 05c2 303d
00000130: 6081 673c 001b 523d 661e 653d 1f22 533d
00000140: 1464 013d 0c09 eebc 9668 d7bd da95 adbd
00000150: 0e69 233e 0a30 c73a a968 75bd 5c47 70bd
00000160: 96cd a93d 48d0 b7bc fe7b 913d 051f 04be
00000170: 5d75 8dbd f003 ce3d 2d70 0cbd dbc8 72ba
00000180: 94bf 23bc f78b 0bbd e9b3 d23c 2037 b93d
00000190: 52cc 39bd 39f5 493d e26c 8abd 5025 1e3d
000001a0: 399c 353d a449 a13c bed6 cebb d1f9 aabd
000001b0: 67f6 883c 737e 80bd 87af 4fbd 9891 5b3b
000001c0: ba8c bf3d b2b4 053d 33d0 a63d 717b 16be
000001d0: d85d c83c eeba 3fbc 7fad 0ebd 9cbd 4ebd
000001e0: 7c52 98bd 7479 8d3d 42d9 ec3c aec6 6ebb
000001f0: 2055 e5bb dcc9 d2bd 1e1b 35bd 7a65 b9bd
00000200: 5433 2f3d bf20 0c3d 301b 063d 833f 31bd
00000210: f123 6a3b f78d 7c3d 561b ffbc a567 e1bc
00000220: 7079 7e3c 45dc a7bc 7f0c 093e 7181 b3bd
00000230: 2136 84bd 4045 a33d f7db 0d3d c678 293d
00000240: 874f 893d d6d3 40be 2715 853d ca31 ee3c
00000250: 8b15 27bd f9aa 02be 5a99 a8bb 269d f7bc
00000260: 867b da3d 91e6 c23d 6098 103e bb77 ca3d
00000270: d68e 503d d9eb 89bb 6e60 3d3d df52 853c
00000280: afaa 293d b1e6 983c f96b 22bd 5330 36bd
00000290: 8faa fc3d 5b99 3039 6d33 a0bd 45fb 973c
000002a0: cef5 c5bd be50 19bc b837 d8bd cdc1 3abc
000002b0: 2781 9bbd 0361 933d 3ea5 df3d a8ee 4fbd
000002c0: d1a9 0d3e 73b1 22be 837f c9bc cd22 bd3c
000002d0: 1eb8 89bd abfa 1fbb d4ec 47be 2abf 0ebd
000002e0: dab8 f53b c302 6c3c bca6 b03c e335 79bc
000002f0: 286d 17be 9a54 ce3c 0558 1dbe b6ff a4bd
00000300: c5e8 31bd 6e25 36bd eb11 bbb9 ef8c 9cbd
00000310: 5510 603d ed97 7abd 9517 acbd 820a 13bd
00000320: 015a b5bc 8be2 65bd 8bb1 723c 04d5 f93d
00000330: 2ce2 4ebd a156 70bd cf03 08bd 2af4 a3bc
00000340: 4dcb ef3d 6e82 993d 1fe3 90bd 8a2e 2a39
00000350: 44ef 213d 8693 4c3e 06a2 0c3d 6a2d 3abd
00000360: 6fcb 2d3c 37cf 373d 9090 98bd e77b 8cbd
00000370: bc96 89bd 597f dc3c bb1a a13c d0d2 dabd
00000380: c687 863b 9d33 373d 2247 8fbc 210f 7dbd
00000390: 6d06 603d f45e 9b3c cec2 94bc 95a6 b4bd
000003a0: 39f8 52bd 4dcf 90bd 2ce1 d23c 6f84 a13c
000003b0: 88e4 0a3b 2fc8 fbbd 3458 7cbd 4b18 42bd
000003c0: b350 46bd 5048 86bd 513d bdbc 9dc4 f33c
000003d0: 802d a83c 9593 98bd 46a9 a73b 0de2 c8bc
000003e0: f8f7 71bd 2611 c33c c42a 00bd a43f 3ebd
000003f0: 47da 0bbd ea18 1a3e 8caa 0b3d 8861 dbba
-0.003354526 0.048777465 -0.050389037 0.052650478 -0.04589841 -0.0013757377 0.12967768 0.13617244
0.01045352 0.04384818 0.0034401307 0.024811849 -0.05169489 -0.057379093 -0.02710529 -0.057186477
-0.062413312 -0.050627634 -0.011216382 -0.069215134 0.02648948 -0.122692555 -0.03676976 0.018924616
0.017375126 -0.028845182 0.0102291815 -0.02603921 0.03695658 -0.09586448 -0.023500204 0.013160355
0.05182017 0.06632354 0.09090329 0.067673504 -0.030146392 -0.046402037 0.012311969 -0.03287349
0.015361829 -0.021634152 -0.04948997 -0.036002025 -0.058209095 -0.00090719986 0.023922924 -0.16086368
-0.0121407565 0.019490484 0.056241825 -0.08210667 -0.03145446 0.1958944 -0.053709056 -0.028847907
-0.15139426 -0.059887927 -0.05533202 0.023624593 0.065518625 -0.011529087 -0.00063656067 -0.07425137
0.02437173 -0.032721937 0.01377933 -0.016618764 -0.053006608 -0.016124224 0.11802858 0.047877535
-0.12717552 -0.0683557 0.09462205 0.04315378 0.0141299665 0.05129528 0.055937193 0.051546212
0.031589583 -0.029057048 -0.10517995 -0.084758475 0.15958044 0.0015196812 -0.059914265 -0.058661804
0.082911655 -0.022438183 0.07103728 -0.12902458 -0.06907151 0.10059345 -0.034286667 -0.0009261497
-0.009994406 -0.034069028 0.025720553 0.090437174 -0.04536087 0.04930613 -0.06759049 0.038609803
0.04433844 0.019688435 -0.0063122204 -0.0834843 0.016719056 -0.06274118 -0.050704505 0.0033503529
0.09353013 0.032643028 0.081451796 -0.14695527 0.02445881 -0.011702282 -0.034833428 -0.050473794
-0.07437608 0.06907931 0.02891219 -0.003643434 -0.006998673 -0.10292408 -0.044215314 -0.09052558
0.04277356 0.034210917 0.03274077 -0.04327346 0.003572699 0.061658826 -0.031140964 -0.027515242
0.015531883 -0.020490775 0.13383673 -0.08764923 -0.06455637 0.07972193 0.034633603 0.041374944
0.06704622 -0.18830809 0.06498175 0.029076476 -0.04079203 -0.12760533 -0.005145234 -0.030226301
0.106680915 0.09516633 0.14120626 0.09886118 0.05091747 -0.0042090234 0.04623454 0.016274868
0.041422542 0.01866469 -0.039653752 -0.04447968 0.12337219 0.00016841797 -0.07822309 0.018552432
-0.09666024 -0.009357629 -0.105575025 -0.011398745 -0.07592993 0.07196238 0.10920189 -0.05076471
0.13834311 -0.15888004 -0.024596935 0.023087883 -0.06724571 -0.0024410884 -0.19523937 -0.034850277
0.0074988427 0.014404955 0.02156388 -0.0152106015 -0.14787734 0.025186826 -0.15365608 -0.080565855
-0.043434877 -0.04446929 -0.0003568077 -0.076440684 0.054703075 -0.061180044 -0.084029354 -0.035898693
-0.022137644 -0.05612425 0.014812837 0.12198833 -0.050508663 -0.058676366 -0.033206757 -0.020013887
0.117086984 0.074955806 -0.0707457 0.000162298 0.039534822 0.1997815 0.034334205 -0.045453466
0.010607584 0.04487535 -0.07449448 -0.0685957 -0.067182034 0.026916193 0.019666066 -0.106847405
0.004105541 0.044726957 -0.017489973 -0.061782006 0.054693628 0.018966176 -0.018159296 -0.088208355
-0.051506255 -0.070707895 0.025742136 0.01971647 0.0021193344 -0.12294041 -0.061607555 -0.04738645
-0.048416805 -0.06556761 -0.023100527 0.029756838 0.020529509 -0.07450024 0.0051166145 -0.024521852
-0.059074372 0.023811888 -0.031290784 -0.04644741 -0.034143712 0.15048566 0.034098193 -0.0016737441

bias f4 [16]
00000000: 5671 f13c 6a2f c23c 1910 48bc bb35 d4bc
00000010: a721 2d3d bff1 4c3d c1fc 233d 68d4 03bd
00000020: 9f67 e6bc 141d 27bd 626c 98bc 3da7 143d
00000030: 6139 07bc 419a 803c f179 85bd 23f8 b3bc
0.029472988 0.02370425 -0.012210869 -0.025904527 0.04226842 0.050035235 0.040035967 -0.03218499
-0.028125582 -0.040799215 -0.018606368 0.036292303 -0.008253426 0.015698554 -0.06517399 -0.021968907

weight f4 [16]
00000000: eeec 6b3f 740a 6f3f 806c 793f be95 7a3f
00000010: 17a4 813f fb8a 803f 8474 793f d8b4 7d3f
00000020: a7fd 823f e328 7c3f a42b 7f3f 3fce 7a3f
00000030: 0088 813f cf0f 863f 0d48 723f 1c55 7d3f
0.921584 0.93375325 0.9743118 0.9788474 1.0128201 1.0042413 0.97443414 0.9910407
1.0233659 0.9849989 0.99675965 0.97970957 1.0119629 1.0473574 0.9464119 0.9895799

bias f4 [16]
00000000: d5f9 723d 8c88 853a a496 d8bc 21d5 22bc
00000010: 08fa 593d 5418 10bd f28a bfbc 3da3 a63d
00000020: 101d c23c 8158 b4bb 7aa7 8d3d 89e3 62bc
00000030: b485 663d e4b2 803d dcaa e13c 4ad4 893c
0.05932029 0.0010187789 -0.026439019 -0.009938509 0.053216964 -0.03517945 -0.023381684 0.08136604
0.023695499 -0.0055037146 0.06916709 -0.013848194 0.056279853 0.06284121 0.027547292 0.01682486

running_mean f4 [16]
00000000: 169c d9be 669e 44bf f57f a6be 3d48 b5bc
00000010: 9d45 d63e 481f d03e 7678 7b3f 5795 19bf
00000020: 42de 943f 7e20 3f3e 71a8 46bf de69 ccbf
00000030: 4e6b 1dbf e656 a6bf cb8a 57bf b20d a2be
-0.42501897 -0.76804197 -0.32519498 -0.022129172 0.41849986 0.40648866 0.98230684 -0.599935
1.1630328 0.18664739 -0.7760077 -1.5969808 -0.6149186 -1.2995269 -0.84196156 -0.31651074

running_var f4 [16]
00000000: fb13 1e3f 6014 1440 15a8 803e f225 bd3e
00000010: eb7d a53e 4819 3c3f 2f05 363f a525 d43f
00000020: 4bbb 1640 429b 1c3f 0411 0640 751a 0f3f
00000030: c25f 5d40 8856 1340 4cf9 a33f e3ba f33e
0.6174924 2.3137436 0.25128236 0.36943012 0.3232263 0.73476076 0.7110166 1.6573988
2.3551815 0.61174405 2.0947886 0.55899745 3.4589696 2.3021564 1.2810454 0.4760352

weight f4 [1, 16, 5, 5]
00000000: 641e 3c3b 7b55 0fbd f64f 70bd fdf6 a43d
00000010: 4eda 07be a325 253d 965d 2ebe 3e5a 8c3c
00000020: f744 23bd 6599 353d 673f f8bd 3944 b9bd
00000030: e876 86bc 9b26 22bd 19a8 993c 06dd d73c
00000040: 0ad0 11bd 0424 93bc c531 463c 378c efbd
00000050: 8c40 62bc bd00 15bd f16b dc3d bff5 13bd
00000060: 266f 9abd f9cc d6ba 6adf b3bb f7e1 9d3d
00000070: 1e44 a13d 6f1a 383e 836b dabd ceaf 8a3d
00000080: 5c82 1ebd 873f 6cbd 2229 a9bd a790 88bd
00000090: 8e3a 2fbd e484 6cbd daef e3bd 5f6e afbd
000000a0: 8186 debd 1841 2ebd 43ce dc3c a612 9fbd
000000b0: da6d 473d 42bc 323c a026 d7bd 91d2 773b
000000c0: 20bb 313d 52b9 133d b2cb 01be 9e9a 14be
000000d0: 3e26 9fbd a715 e6bd 7c8d a6bc 315b adbd
000000e0: 6608 7bbc 5f4d d7bd dea0 01be b3d9 89bd
000000f0: 64f8 5fbd 2f10 c0bc 42b9 70bd ebcb cabc
00000100: 3ae3 61bd 61a1 ed3c a108 a53d 0f3d 54bd
00000110: d6b0 8e3d 3876 26bc ba16 553d fd0a 5cbd
00000120: 9e7f e2bc 6ba5 95bd 57ce bbbc 53dc 873c
00000130: bebb 1fbc 4baf 02bd 8bf8 b2bd 9940 9bbd
00000140: 1824 5ebd f068 7abd b30a 09bd 87c1 a33a
00000150: 6afa bdbc 5fe0 3cbe 429b 4dbd ab18 2abd
00000160: 9a1e 3fbd 6eaa 323d c661 933c a2bf 80bd
00000170: e507 67bd dbd5 b23c 344b 11be f3da a1bc
00000180: 599c 29bc 1f14 10bd 929f 033d 6230 98bd
00000190: 47db bbbd 6ba7 f3bd 2c5e ccbd 295f 9fbc
000001a0: ed68 bc3d ca5f 07bc 5180 e8bd 5d6c aebd
000001b0: 9037 8cbd 6746 5f3d 0660 e0bd ca1a f4bc
000001c0: 48d5 8ebc f727 b3bd af85 21bd 52a5 5e3c
000001d0: edf8 2b3d 0af0 c23b 73fb 4ebd 42e1 64bd
000001e0: 498c db3d 6276 c43c 898d e03c e031 aebd
000001f0: 363e e4bd c1ed d2bc 244c 9b3d 3ff9 d9bc
00000200: 3693 a3bc b7a9 05be 6a17 26bd edde 28bd
00000210: 16fa 1b3c 9363 0bbc b973 a6bd 2b2b f7bd
00000220: c670 0dbd 2973 41bc 99c1 84bd f0ec ffbd
00000230: 9c38 72bd 0e7e d6bd ccd7 c2bd 5d28 97bd
00000240: 92a4 5fbd 5788 b1bd 8183 c5bd 2684 fb3c
00000250: b2e5 76bd 1817 173d e308 87bd da39 51bd
00000260: fa2a a3ba 90af 403e 8b05 9c3c f73f c7bd
00000270: e7c8 cf3c c8a4 9f3d 8bee 023e bda4 1cbd
00000280: 064f 95bd d12f b0bd bb1c 25bd 30c8 ccbd
00000290: c324 a83c 2cc3 8e3d 2ef6 38bd abcf 16bc
000002a0: a2c8 59bd e824 5ebd e208 3ebd 9355 d7bd
000002b0: b55a 0dbe 40f6 2ebd 031e 2ebd 7c07 1abe
000002c0: 8a8d da3c 9301 7a3d 4c0c f8bb f89c b3bb
000002d0: 78a3 2dbe 9546 0dbd e057 70bc aa83 d7bd
000002e0: 97db 02bd c792 7ebc d1ba 9ebc 2619 8cbd
000002f0: 9c46 bc3c 3858 84bc 655a b93c e46c b73c
00000300: dab6 803c bd17 a7bc e687 6cbd f5fe 393d
00000310: dccf bcbd 4b3c f53d a906 47be 4a09 69bd
00000320: 2536 24be 7559 67bd efe1 17be 9376 723d
00000330: 03b5 3bbd 57f8 cbbd 2c37 a5bd e0cb 07be
00000340: c16b e4bd 94c2 a9bd 8892 4ebd 9602 fdbd
00000350: 000f ebbd 8737 63bd f7f7 5c3d 62d3 b03d
00000360: 7370 b6bc 31f8 a4bc 5c1e b8bd edff edbd
00000370: 27a9 3c3a e0f0 e93d 88da a03d b00a ba3b
00000380: 00b7 c93c fd7f f1bc fde8 a4bd 9145 3a3d
00000390: 25fd d8bd 834e b6bd 7ddd ccbc 462c dbbc
000003a0: 6a23 41bd 32b9 0f3d 2dba be3c d4c7 083d
000003b0: 0560 febd 25b0 f2bd d389 d13c 5380 73bd
000003c0: c0cc bebd a2f8 e9bc a4e5 25be 1961 17bc
000003d0: 3d57 7cbd 0640 dfbd 924a b9bd e7a7 15bd
000003e0: 1941 46be b23e 92bd f88c 7dbd bdd0 833c
000003f0: edb8 bebd 62e9 233d 65a2 ddbc c1b3 1dbd
0.0028704638 -0.03499363 -0.058670007 0.08054922 -0.1326687 0.040319096 -0.17027888 0.017132875
-0.039860692 0.04433574 -0.12121468 -0.090462156 -0.01641412 -0.0395876 0.018756913 0.02635051
-0.035598792 -0.01796151 0.012096827 -0.11696666 -0.0138093345 -0.036377657 0.10762776 -0.036123034
-0.07540731 -0.0016387991 -0.0054892795 0.07709115 0.078743204 0.17978834 -0.106650375 0.06771813
-0.03869854 -0.057677772 -0.082597986 -0.06668215 -0.04278045 -0.057743922 -0.111297324 -0.085659735
-0.10865498 -0.042542547 0.026953822 -0.07767229 0.048688747 0.010909142 -0.10505414 0.0037814716
0.043391347 0.036065407 -0.1267536 -0.14512107 -0.07770966 -0.112345986 -0.020331137 -0.08464659
-0.015321827 -0.10512804 -0.12659022 -0.06730976 -0.054680243 -0.023445217 -0.058770426 -0.024755439
-0.05514834 0.029007616 0.080582865 -0.051816043 0.069673225 -0.0101600215 0.052023627 -0.053721417
-0.027648743 -0.073069416 -0.022925539 0.016584551 -0.009749351 -0.031905454 -0.08738812 -0.075806804
-0.05423364 -0.061135232 -0.03345747 0.0012493589 -0.023190696 -0.18444966 -0.050196894 -0.04152743
-0.046660043 0.043619566 0.017990958 -0.06286551 -0.056404013 0.02183049 -0.14188844 -0.019757723
-0.010352218 -0.03517544 0.0321346 -0.07431103 -0.09172683 -0.11897167 -0.09978899 -0.019454556
0.091997005 -0.008262584 -0.113525994 -0.085167624 -0.06846535 0.0545105 -0.10955815 -0.02979793
-0.017435685 -0.08747857 -0.03943413 0.01358922 0.04198544 0.005949025 -0.05053277 -0.055878885
0.10720117 0.02398223 0.02741124 -0.08505607 -0.11144678 -0.025748136 0.07582882 -0.026608108
-0.019967657 -0.13053022 -0.040549673 -0.041228224 0.009520074 -0.008507627 -0.08127541 -0.120687805
-0.034531377 -0.0118072415 -0.06482238 -0.12496364 -0.05913602 -0.10473262 -0.09513816 -0.073807456
-0.054600306 -0.08668583 -0.09644223 0.030702662 -0.06027765 0.03688726 -0.06593492 -0.051080562
-0.0012448721 0.18816972 0.019045612 -0.09728997 0.025364352 0.077951014 0.1278631 -0.038243044
-0.07290463 -0.0860287 -0.040310603 -0.0999912 0.020525342 0.0697082 -0.04515665 -0.009204785
-0.053169854 -0.054234415 -0.04639519 -0.10514369 -0.13804133 -0.04271531 -0.04250909 -0.15041918
0.02667882 0.061036658 -0.0075698253 -0.0054813586 -0.1695689 -0.03449114 -0.0146693885 -0.1052316
-0.0319477 -0.015537924 -0.01937619 -0.06840734 0.022982888 -0.016155347 0.022626111 0.02239079
0.01571219 -0.020397061 -0.05774679 0.04540916 -0.092193335 0.119743906 -0.19436134 -0.056893624
-0.1603628 -0.056481797 -0.1483228 0.059195112 -0.045826923 -0.099594764 -0.08067164 -0.13261366
-0.11153365 -0.08289066 -0.05043271 -0.12354009 -0.114774704 -0.055472877 0.053947415 0.08634068
-0.022270417 -0.020137878 -0.089901656 -0.116210796 0.00071968365 0.114228964 0.078541815 0.0056775436
0.024623394 -0.029479975 -0.080522515 0.0454765 -0.105951585 -0.08901694 -0.025007958 -0.02675451
-0.047152914 0.035088725 0.023282135 0.033393696 -0.12420658 -0.11850003 0.025578415 -0.05944855
-0.09316397 -0.02856094 -0.16200882 -0.0092394585 -0.061606634 -0.109008834 -0.09047426 -0.036537077
-0.1936077 -0.071408644 -0.061902016 0.016090745 -0.093126155 0.040017493 -0.027054975 -0.038501505

weight f4 [128, 324]
00000000: e83d 803c 0adb 03bd 8a8f 9bbd 7587 01bd
00000010: 5c6f a83c 6278 1ebd f159 1cbc 4a29 fbbc
00000020: c1f4 a0bd 5871 b9bc aa1d 8bbd 64ba 013d
00000030: a9de 8b3c dfe2 54bd ada3 a9bd 0f1e c0bc
00000040: e512 6bbd 9551 963c a35a 56bd 7d60 05bd
00000050: 828a 85bd 9f2e 5fbc 0bbc 8d3c 32cf a23c
00000060: 248b b63c 5ef5 243d 1ced 173d 9413 8ebd
00000070: 619c a13d 7bdc b6bc 5f9a 72bc 87d2 3fbd
00000080: bd73 0ebd cbd8 3ebd e352 d23c 3d9e 2abd
00000090: 1d4b 1cbd 1fe0 903d 2c5c b0bc 78be 91bd
000000a0: 16f0 a7bc d5be 81bd f873 853b 5ffc a03b
000000b0: fafb 8bbd 2ab1 f23c 20e5 4d3c 7574 c03c
000000c0: a8f5 103c ea0c a43d b2c9 e6bb c954 d13c
000000d0: b843 1d3c afaf 59bd 04a8 a0bd 8712 823b
000000e0: 2791 46bd f954 73bd ba23 adbc 858f cc3c
000000f0: da9e 0cbd f51f 6dbd 9827 b9bc 2434 50bd
00000100: 6a1c 8e3c b0d7 63bd 55e7 23bc 2537 98bd
00000110: 2b32 1a3c 39d0 09bd 18e4 63bd e81f 83bd
00000120: d7a5 dabc 1f48 6cbd c446 193c 2a6a 09bd
00000130: 6b18 abbd 7798 a6bd cc28 bcbb 76d4 a5bd
00000140: af0e 99bc 4054 f039 219e dabc e40c 96bc
00000150: 382d 74bd 7741 82bd d20d 1fbd f436 a9bd
00000160: 71cf 323a 454e b8bc 7a44 adbd 1544 44bc
00000170: efd2 8f3c b18c 5b3d 4ca9 14bd a7a6 57bd
00000180: 13a1 583c 9fe8 a5bb 554c 19bd 571b 9bbb
00000190: 7b94 783d e3af a83c f104 1abd 17ea 50bd
000001a0: 9b07 ce3c 8c51 193d f803 36bd da48 3bbd
000001b0: 776f 673c ffe5 363b 9932 a3bd 7a88 973c
000001c0: 34d9 2cbd 6551 80bd abe7 77bd 3232 66bd
000001d0: e370 5abd e209 103d 7705 4fbc a24a 2cbc
000001e0: 64d3 c33b 2628 913d 8b70 1abd d435 ccbc
000001f0: 3489 4abc 81a7 adbd 9342 afbc 02fd 0abd
00000200: 4eda 96bd 433e e6bb 2835 8cbb d3ae 1c3b
00000210: 2442 93bd c586 8cbd 8622 07bb e1f4 a23c
00000220: 7f5f acbd cb61 94bc aaef 86bd 2b29 e73c
00000230: b951 563c e38e 6fbd 81cf bebc 973c b7bc
00000240: 349b a2bd 10c3 87bd 32b7 f9bc 949f f7bc
00000250: 9e3a e5bc 3538 52bd 9754 aabd 388b 2fbb
00000260: a1cd 11bd 1d9d bcbc b3fc 83bd 1f74 8dbc
00000270: 7f8c 0e3b 8ca3 063c 7a39 83bd 6d18 aa3b
00000280: 2e1a 81bd 7a31 4abd f0b0 9c3a d9e8 48bc
00000290: 8857 9f3c 53a4 80bc f17f 28bd d9a8 03bd
000002a0: 7c1b 3bbd 181b 253c 75bd 02bd 4671 523c
000002b0: 7d93 583d 6179 7f3d c215 9ebd fcf7 db3c
000002c0: 4a33 73bd 4927 803c fc45 3e3c 15f7 aa3c
000002d0: 48c4 80bd 6513 98bd 7bbb 103c dcf1 56bd
000002e0: f58d 4e3c 55ce 5c3a 6b89 b93a dac4 e4bc
000002f0: f542 05bb 1e57 96bd 3f94 5fbc 6eb6 5ebc
00000300: b774 563d 948f 59bd 129a 32bc f35c a23b
00000310: e164 e6bc d249 46bd a28e a7bd 3392 9fbd
00000320: 4eab 24bd c9ef 27bd 3fd9 42bd cb92 3f39
00000330: 224f 86bd ddfc a7bc 05e4 c13c cc46 e53a
00000340: 6afc 9c3c ef07 c03c 9d71 c63c 16be 3abd
00000350: e153 1fbd c582 ad3c 9ce6 35bc 849f 52bd
00000360: 7cd2 a8bd bbae 7e3c b516 b2bc 002b 883c
00000370: e11c 15bc c750 b83c e974 52bc 0792 84bd
00000380: 64f7 32bd b43e 003c 4c01 10bc adc4 79bc
00000390: bd75 9bbc 5530 edbc bc88 43ba 0b4d 65bd
000003a0: 9f7c 75bd 098b 9b3b cb8a 10bc eb04 89bd
000003b0: ee44 34bd f2c8 16bd d830 063c 05ba 563c
000003c0: 943e 013c d05b 00bd 5ce9 0ebd bed3 abbd
000003d0: bda6 bc3c befa 973b c0df a5bd 46c5 8dbd
000003e0: a505 e3bc da00 18bd fe51 0fbd 75ba 86bb
000003f0: e801 9c3c 0d6b 8fbd 56bd 143c b55a e6bc
0.01565452 -0.032191314 -0.07595737 -0.031623323 0.020560913 -0.038689025 -0.009542928 -0.030659337
-0.07859183 -0.022637054 -0.06792767 0.031671897 0.017073946 -0.051974174 -0.08283172 -0.023451833
-0.057391066 0.018349448 -0.05233253 -0.03256272 -0.06520559 -0.013621955 0.01730158 0.019874189
0.022283144 0.040273063 0.03709136 -0.06937328 0.07891155 -0.02232193 -0.014807313 -0.046831634
-0.034778345 -0.04659347 0.02567429 -0.041654814 -0.03815757 0.07073998 -0.021528326 -0.07116407
-0.020500224 -0.063352264 0.0040726624 0.0049128975 -0.0683517 0.029625494 0.012566835 0.023493031
0.0088476315 0.08010276 -0.007043087 0.025553124 0.009598665 -0.05314606 -0.078445464 0.003969494
-0.04847827 -0.059407208 -0.0211352 0.02497078 -0.03433118 -0.057891805 -0.022601888 -0.050830975
0.017347533 -0.055625618 -0.010003884 -0.07432393 0.009411375 -0.033645842 -0.05563745 -0.0640257
-0.026690407 -0.057685968 0.009355251 -0.03354851 -0.08354267 -0.08134549 -0.005742168 -0.08097164
-0.01868376 0.00045839138 -0.02668673 -0.018316694 -0.059613436 -0.06360143 -0.03883154 -0.082624346
0.00068210723 -0.02249826 -0.084603265 -0.011979123 0.017556636 0.05360097 -0.036294267 -0.052649166
0.013221997 -0.005063131 -0.03742631 -0.004733484 0.060688477 0.020591682 -0.03760237 -0.051004495
0.025150111 0.037431285 -0.04443738 -0.045723774 0.014125696 0.0027908084 -0.07968635 0.018497694
-0.04219933 -0.06265525 -0.06052367 -0.056200214 -0.053330313 0.035165675 -0.01263558 -0.010515841
0.0059761275 0.07087736 -0.037704986 -0.024928011 -0.012361813 -0.084792145 -0.02139405 -0.033932693
-0.07365857 -0.007026465 -0.0042787977 0.0023907914 -0.0719035 -0.06861643 -0.0020619943 0.019892158
-0.08416652 -0.018113038 -0.06588681 0.028217873 0.013081008 -0.058485877 -0.023292305 -0.022367759
-0.07939759 -0.06629002 -0.030482862 -0.03022746 -0.027982052 -0.051323134 -0.083169155 -0.0026785862
-0.035596494 -0.023024136 -0.06444683 -0.017267285 0.0021751223 0.008217704 -0.06407447 0.0051909
-0.063038215 -0.04936359 0.0011954587 -0.012262546 0.019450918 -0.015703356 -0.04113764 -0.032143448
-0.045680508 0.01007726 -0.03191896 0.012844389 0.05287503 0.062371615 -0.07718994 0.026851647
-0.059375085 0.015643733 0.011613365 0.020869771 -0.06287438 -0.07425574 0.008833761 -0.05247675
0.012607087 0.000842308 0.0014155334 -0.027925897 -0.00203341 -0.07340835 -0.0136461845 -0.013593299
0.0523574 -0.053115442 -0.010900991 0.004954928 -0.028124275 -0.048410244 -0.08181502 -0.07791557
-0.04020243 -0.04100016 -0.047570463 0.00018269864 -0.06558062 -0.020506317 0.023668298 0.0017492413
0.01916333 0.023441283 0.024224097 -0.045591436 -0.038898353 0.02118052 -0.011102345 -0.051421657
-0.08243272 0.015544589 -0.021739343 0.016622066 -0.009101124 0.022499455 -0.012845256 -0.06473165
-0.04369296 0.00782745 -0.008789372 -0.015244645 -0.01897704 -0.02895371 -0.00074590347 -0.055981677
-0.0599333 0.004746799 -0.008822153 -0.06690391 -0.04401105 -0.03681273 0.008190356 0.013105874
0.007888455 -0.03133756 -0.034890518 -0.08389996 0.023028726 0.004638045 -0.080993176 -0.069223925
-0.027712652 -0.037110187 -0.034990303 -0.004111583 0.019043878 -0.0700284 0.009078344 -0.028119424

bias f4 [128]
00000000: 474b 80bd 694a 8fbd 3d34 7abd c132 babd
00000010: eaaf ae3c 17d6 76bd 5ea9 57bc 4255 7d3c
00000020: 180f ddbc 3e55 64bd 743a 6c3c f986 073c
00000030: a83b 1b3c 09ae 7dbd 9288 9fbd 0769 75bd
00000040: 9f53 363c f884 603a 3252 27ba 0e75 7e3c
00000050: cec1 0cbd 0069 1cbb 7a1f 22bd f820 bb3a
00000060: 6853 b33b 7e88 61bd 3fd2 69bd 1938 96bd
00000070: 08c2 90bd 34ed b13b 0f6b a0bd 7267 22bd
00000080: 6fc5 5abc be35 f33c 4b8c a83c 6c15 aaba
00000090: a88c 2bbc 87cb ccbc 163a bcba d48c 1cbc
000000a0: 40a3 f7bc 7323 e6bc 05cb d0bc 1c84 7c39
000000b0: 5ae4 cbbc 4f74 c33d f7a7 8abc 7321 f33a
000000c0: 552f da3d 3cd1 b13c d676 de3c bba2 00bd
000000d0: 29eb 81bd 9988 4ebd 3256 553c 67e7 0bbc
000000e0: 576a 12bc 69f9 6bbd 6300 3fbd 9051 d3bd
000000f0: e527 a53a a89c 5abc 72cb 8bbc 523a 593d
00000100: 08a6 80bd 19a1 1fbd 2ea1 14bd 1479 1c3a
00000110: 6a10 7ebc f966 9abd 1b84 dbbc b0ea a83c
00000120: 946c 6abc f27d a5bd e600 e5bc 3314 19bd
00000130: ce21 21bd e2dc d3bc eb54 943b 4986 14bd
00000140: f983 dabc 438e 7abc 4cd3 57bd 9f45 28bb
00000150: 55ae 89bd e0e0 933c 29bd 2fb9 f0c2 5cbc
00000160: 0d31 abbc 84b3 dcbc b8a9 013c a596 aebd
00000170: 9bf3 ad3d 7347 95bd 2bce a7bc a845 e83c
00000180: 3f8e 8bbc 90fd 9fbd f612 8abd bdbc 8c3a
00000190: 7a5e d13c 3e03 00bd 0895 38bd e801 57bd
000001a0: c6e1 26bd 2bc6 4abd ddd7 c4bd 725d 593d
000001b0: 63fb ea3c e6a3 91bd ec09 c0bc e651 ac3c
000001c0: b250 9cbd 46e6 5b3a 4f00 afbc 2414 313c
000001d0: a1c5 42bb 0bdf 8bbd b0ed a9bd 28a1 01bd
000001e0: 2477 763d 0966 56bd d710 e7bd 2f40 a3bd
000001f0: 79df 0dbc ae9f 40bd d6e1 4ebd c7b4 98bd
-0.06264358 -0.069966145 -0.061084975 -0.09091712 0.021324117 -0.060262766 -0.013162939 0.015462222
-0.026984736 -0.055745356 0.014418233 0.008271926 0.009474672 -0.06193355 -0.077897206 -0.059914615
0.011128335 0.0008564736 -0.00063827925 0.015530838 -0.034364514 -0.0023866296 -0.0395808 0.0014276793
0.0054725893 -0.05506181 -0.057085272 -0.073349185 -0.070682585 0.005429888 -0.0783292 -0.039649434
-0.013352736 0.029688712 0.02057471 -0.0012976355 -0.010470547 -0.024999393 -0.0014360573 -0.00955506
-0.03022921 -0.028093075 -0.025487432 0.00024081807 -0.02488916 0.095436685 -0.016925795 0.0018549397
0.10653559 0.021706216 0.027156275 -0.031405192 -0.06343681 -0.05042324 0.013021039 -0.008539057
-0.008936486 -0.057610903 -0.04663123 -0.10318291 0.001260039 -0.013343014 -0.017064784 0.053034134
-0.06281668 -0.038971994 -0.036286525 0.000596897 -0.015506843 -0.07539172 -0.026796391 0.02061972
-0.014308114 -0.08080663 -0.02795453 -0.03737278 -0.03933888 -0.025862161 0.0045267246 -0.036260877
-0.026674258 -0.015292707 -0.052691743 -0.0025676263 -0.06722704 0.018051565 -0.00016759768 -0.013474211
-0.020897413 -0.026941068 0.007913999 -0.08524827 0.0849373 -0.072890185 -0.02048405 0.028353527
-0.017035602 -0.07812035 -0.06741898 0.0010737401 0.025557745 -0.031253092 -0.045064002 -0.052492052
-0.040742658 -0.049505394 -0.09611485 0.053067632 0.028684324 -0.07111339 -0.023442231 0.021035146
-0.07632579 0.00083885004 -0.021362452 0.010808025 -0.0029719847 -0.068296514 -0.082972884 -0.03164783
0.060172215 -0.052343402 -0.11282509 -0.079712264 -0.008659237 -0.047027282 -0.050508343 -0.074563555

weight f4 [3, 128]
00000000: 2012 4e3d 4e20 1b3d 3c75 2e3d d501 fcbc
00000010: 222b 2d3a 084c 563c 77a0 a4bc 05f2 6fbd
00000020: feaa 6fbd b3be 80bd f24d 01bc 04fb 35ba
00000030: 4d84 1f3d 7460 6dbb 8167 5fbc 219a eebc
00000040: 6c94 0dbd 0021 803d 89fe 04bd afcd bdbd
00000050: 6aa4 2d3c 6fe0 8c3d 2c47 41bd 7f15 313d
00000060: 268f 67bd 053d fa3c 23c0 bebd ccb0 c4ba
00000070: 39ce 47bd 1322 1c3d 1f52 0cbd e149 f3bb
00000080: b4bd 3cbc 084c 5f3d 4df6 fdbc 1944 523c
00000090: 34de 3ebc 9a93 7b3c 53c9 3cba ffb9 533c
000000a0: 50b0 6d3d 1e53 813c cbce 6b3c d3a4 2e3d
000000b0: f5f3 693c 5ccf f4bc fc4d a53b a4b6 ee3d
000000c0: d03c 553d 1319 b33b 1612 50bd a542 fcbc
000000d0: 0d37 7cbc 7e02 d43d c283 2c3b e096 44bd
000000e0: 4d03 063b 00b0 133d 4daf 0abd 3f4f 6bbd
000000f0: 23d5 9c3d 6381 0dbd 11ab f03c 743d 8cbd
00000100: 5a1c 71bc 5b7d 543c 6d94 4abd b17c 2d3d
00000110: 1eb3 4fbd 18ae 483d b4ca 1a3d feb9 b6bd
00000120: 87b6 483d 6c1f ed3b f6cc 62bd 9ca0 dc3c
00000130: 05e8 063c 063c ea3c 2ee8 c4bd f911 5abc
00000140: ab42 133d 8405 d2bd 0b5d 3d3c 853d 59bd
00000150: 920c 60bd a5f4 183b a251 543d c40d e93c
00000160: 64e7 a7bd e166 f5bc 45a6 1a3e d589 b9bc
00000170: 1a63 35be 0a4b 92bc a6b5 913d 1410 433d
00000180: e183 a0bc 6ba0 623d 71e2 7dbd dd69 313d
00000190: 28b1 40bd 9a55 a93c 28dc 243d b2dd 3b3d
000001a0: 87b1 5cbc 3dd7 523d 7f25 9dbd d4bc c13d
000001b0: 7bcd 663d 54d3 d2bc 8518 6abd 3f2b 443d
000001c0: 1f98 483d cb5f 8a3d c9b7 dcbc 464a acbc
000001d0: a1d1 36bd 8dac 123c 6069 10bd d68d 8bbc
000001e0: eb4e 9b3c b1cf 78bc aba8 ffbc 6bef d7bb
000001f0: 9db1 ba3c 88a0 f63c b5a7 323d f3e3 dabc
00000200: 2e16 b23d 1bb7 0bbd 6a46 3abd c7bd 8a3c
00000210: 21c4 cd3c bf38 80bc 5611 623d c168 b2bb
00000220: 7a7c 02bd e3e8 833b 0e76 dcbd c728 6a3d
00000230: 3b7a 97bc b7d6 09bd 2cd3 2cbd 1a82 7a3d
00000240: c302 19bd 9b90 c93d bf80 73bc cfd7 0d3e
00000250: 884a 8c3d a09e 45bc e9e8 a2bd 0721 8c3d
00000260: 9767 223d e40b e93c 0707 6bbd 5fa0 593c
00000270: d215 84bb 8bed bb3d b591 e6ba 335c 87bd
00000280: 3c25 523d e8b9 b93b 9941 49bd 7228 11bc
00000290: 286b 793d a3ff 19bc 97fb 6bbd 2471 40bd
000002a0: 9fbc 463d 7d8d 543c 4c29 b93b eefd a53d
000002b0: b549 3d3d 4d38 873d 35fb ecbc 8c3b a03d
000002c0: e651 883d b8e1 f33b 1a5b c1bc 7336 31bd
000002d0: 01e8 78bc 559d 2b3b 1f54 483d 3476 14bd
000002e0: 2a64 23bd 91eb 653d fdc2 55bd c490 b1bc
000002f0: c9a3 4b3d aba9 d03c 7e61 743d 5f2e cb3d
00000300: 4240 a93c 16a6 6abd 8fc3 96bc 697c fc3b
00000310: ee6d 83bd 7b08 973c 23f0 db3c 4a88 043e
00000320: 8dca 50bd f531 24bd 74c9 483d c1d4 7e3d
00000330: 74c7 4c3d dc47 5b3c c290 00be 7d23 4f3d
00000340: 4821 643c a9bf 4bbc 9c7b 82bb 515f 28bd
00000350: 0282 dfbc 1c31 53bd 0d5a e9bd 8176 c83c
00000360: 9209 45bc 943c 773d 218f a9bd 6258 2c3c
00000370: c411 5e3e 51cd a0bc ca02 4ebd 59ba 193d
00000380: d925 1abd 6ca5 a23d 53b1 6ebd f48a f63d
00000390: 17b7 8bbb 4c88 5c3d b84c 40bc 5400 cd3b
000003a0: 8719 373d 4938 6a3c c8af a8bd ac60 19be
000003b0: 5304 543d 4051 efbc 2a07 b2bc f5f2 ed3d
000003c0: 2be1 0b3d a21c 17bd ac1e dabc 83d6 43bc
000003d0: 316d 21bc 9dad ccbc bdca 753c b3e9 173d
000003e0: c707 ae3d 27a5 49bd 9251 58bd 1789 26bd
000003f0: 4136 343d 4caa 873d 8cf5 e7bc 4676 493d
0.050310254 0.037872605 0.042592272 -0.030762592 0.00066058536 0.013079651 -0.020096047 -0.058580417
-0.05851268 -0.06286373 -0.007892119 -0.00069420063 0.03894453 -0.003622082 -0.013635517 -0.029126229
-0.034565374 0.06256294 -0.032469306 -0.09267747 0.010598281 0.06878745 -0.047187015 0.04323339
-0.056533 0.030546675 -0.09313991 -0.0015006303 -0.048780654 0.038118433 -0.034258004 -0.0074245785
-0.011519838 0.05451587 -0.031001234 0.012833619 -0.011649657 0.015355015 -0.00072016305 0.012922763
0.058029473 0.015786704 0.014392565 0.042637657 0.014279355 -0.029884033 0.005044697 0.1165593
0.05205995 0.0054656356 -0.050798498 -0.030793497 -0.0153939845 0.10352038 0.002632365 -0.047995448
0.0020448745 0.03605652 -0.033858586 -0.05744862 0.0765784 -0.03454722 0.029378446 -0.06847659
-0.014716232 0.01296934 -0.049457956 0.042355243 -0.05070793 0.048994154 0.03779097 -0.08922194
0.049002197 0.007236412 -0.055371247 0.026932053 0.008234029 0.028593075 -0.09614597 -0.013309949
0.03595225 -0.10254958 0.011557828 -0.053037185 -0.054699488 0.002333918 0.051835664 0.028448947
-0.08198431 -0.029956283 0.1510249 -0.022648731 -0.17713585 -0.017858047 0.07114725 0.047622755
-0.019594135 0.055328768 -0.06198353 0.04331385 -0.04704395 0.0206707 0.04024902 0.045865722
-0.01347006 0.0514748 -0.076731674 0.09459844 0.056348305 -0.025735535 -0.05715229 0.047892805
0.0489732 0.06756552 -0.026943104 -0.02103151 -0.04463351 0.008952272 -0.035256743 -0.017035406
0.01895853 -0.015186236 -0.031208357 -0.00658982 0.02278977 0.030105844 0.04361697 -0.026720023
0.08695637 -0.03411017 -0.04547731 0.016936196 0.025117936 -0.015652059 0.055192314 -0.0054446165
-0.03185699 0.004025565 -0.10764705 0.057167795 -0.018490901 -0.033652034 -0.042193577 0.06115923
-0.03735615 0.098420344 -0.014862238 0.13851856 0.06850153 -0.012061745 -0.0795458 0.06842237
0.039649572 0.028448053 -0.05737975 0.013282864 -0.0040309215 0.09176167 -0.0017591032 -0.066093825
0.05130504 0.0056679137 -0.049134824 -0.008859741 0.060893208 -0.009399327 -0.05761298 -0.0469829
0.048519727 0.012973187 0.005650675 0.08105074 0.04621287 0.066025354 -0.028928379 0.07823858
0.06656246 0.0074426793 -0.02360301 -0.043264817 -0.015192033 0.0026186306 0.04890835 -0.03624554
-0.039890446 0.056132857 -0.05218791 -0.021675475 0.049716745 0.025471529 0.05966329 0.09920954
0.020660523 -0.0572873 -0.018403796 0.0077052605 -0.06417452 0.018436661 0.026847905 0.12942615
-0.050974417 -0.040086705 0.049020246 0.062214617 0.0499949 0.013383832 -0.1255522 0.050570954
0.0139239505 -0.012435832 -0.0039820205 -0.041106526 -0.027283672 -0.051560506 -0.11394129 0.02447057
-0.0120262075 0.060360506 -0.08279253 0.010519119 0.21686465 -0.019629152 -0.05029563 0.03753123
-0.03763375 0.07941708 -0.05827458 0.12038222 -0.0042637694 0.05384092 -0.011737041 0.0062561426
0.04470208 0.014295646 -0.082366526 -0.14978284 0.051761936 -0.029213548 -0.021731932 0.11618606
0.034150284 -0.03689254 -0.026625954 -0.011952999 -0.009852693 -0.024985129 0.01500195 0.037088107
0.08497577 -0.049229767 -0.052812167 -0.040658083 0.043997053 0.066242784 -0.028315328 0.04918506

bias f4 [3]
00000000: 6bda a73c fabd 673b 7d11 ebbd
0.020489892 0.0035361038 -0.11477945

architecture.0.weight f4 [8, 1, 7, 7]
00000000: a9d7 733d 339d e5bd 02f4 0ebd 583e 93bd
00000010: be89 8dbc c939 4cbc bab1 463d 8a3f 853d
00000020: ebe0 da3d 6082 783c d3e7 c53d 9af2 18be
00000030: 98fd 043d 641b 443d 4962 bbbd 237c 503d
00000040: 847b 13be 29ee 38bd d2e6 373e 0454 553b
00000050: 1645 3f3d 8e6e 443d 9bca 543d 3b7e f8bb
00000060: c434 993c 201a 393e c309 353e 6e08 b3bd
00000070: c924 b7bd 47e9 83bd a666 2bbe e407 eabd
00000080: f7d9 e03d 59d4 5bbd 1d0a 1d3c 0529 13bb
00000090: 256d 153e dcd4 9e3d 2e0f 183e 5bbb 06bd
000000a0: 0eb3 e43c a0b3 99bd 241b 6c3d 418f 403b
000000b0: 4938 103e f94d 3f3d a73c 483c 95f1 8cbd
000000c0: 8a99 d83d 1da5 15bd f1d8 5abc ff9e 0bbe
000000d0: 9362 11be 0cea 11bd ff04 b23c 98ac dbbd
000000e0: 1ab4 45be cdfd d2bd d83f a6bd 8883 bbbd
000000f0: e48e b9bb 5d62 90bd 2047 e1bd 00a8 3c3d
00000100: 8b78 38be 1133 aabd 04c6 fcbc 6d9e b7bc
00000110: ec24 fe3c 20d5 65bd bda5 0abe 864e aabd
00000120: 786f e7bd 2e9c c6bd 6280 3fbd 8cef 43bd
00000130: 09b4 0fbe ad9d 25be fe48 6fbc 9459 953c
00000140: 3a6f b2ba a107 f1bd b611 60bd dfde 81bd
00000150: dea9 74bd f4d9 8fbd 027c adbd e1bf 0a3d
00000160: a4e2 fe3c c259 26be d603 a73d fd1b 2a3c
00000170: d5b2 18be 84ca c1bd 7076 28bd 2adf 4dbb
00000180: e0d8 05bd cdcb 19be ca88 3b3e b2f9 833c
00000190: ce47 8fbd 8520 383d 2ea2 acbb 27f5 08bd
000001a0: 726c d6bd 19a7 813c 86c1 c73d a743 8dbd
000001b0: f6b8 3abe d7e3 93bd 8ffc 9d3d 22bb 35bd
000001c0: 4897 b6bd ec2d a23c a65b 843d 7afb f23d
000001d0: d860 873c 7c2d bebd 4151 13be 1941 1bbd
000001e0: b758 a63d 4a9b f13c 9d35 523d 8fcb 663d
000001f0: ac3c 053c 71a9 68bc 61ae a13d 28ab b33d
00000200: dbe2 5fbd 9cfb 99bd a9c5 d43c ee0b 96bb
00000210: 85f9 d03d 76ff aa3d 1d30 5f3a 3882 8fbd
00000220: b9c9 9c3c 5ae2 1fbd 74f9 7fbc 11ea c23d
00000230: 67cf acbd 1664 cbbc 42dd 3abe 7b2e f2bd
00000240: 255e 22bd 121c b9bc 7985 153d 9dcc d3bd
00000250: 05d4 a2bb 0e81 8a3d 0d9a a0bd 961c 203d
00000260: d1c4 873d 9d31 a23c 7e06 ef3a aa97 503d
00000270: 29e7 d1bd bb7a b0bd 1366 8bbc 634b 0fbe
00000280: 7841 103e 7a68 4e3d 3643 fdbd 7a52 8cbd
00000290: e7f5 b8bd c45b c9bc 6441 193c cfc9 e23d
000002a0: dcee dfbd 9f9a 9ebc 22cf e5bc 2b05 213c
000002b0: 025d 1f3d 392a ec3d 9458 e33d a82c ee3c
000002c0: 99aa 6cbc 2fff 5a3d cbca ed3c 7a8a 563a
000002d0: 0a07 f03d fa76 afbc 3e5a 123d 853d 69bd
000002e0: 1086 f83d d33c 693e 26ee 29bd 36c9 04bd
000002f0: 6064 3ebd 9fee 07bd 4828 e3bc 44e2 143c
00000300: 37ba ca3c b278 f53d 872d 58bd 80d5 1ebe
00000310: 70b5 74be 6f1b 07be 586a c03b c879 e5bb
00000320: ec19 4fbd 50f8 193d 3b6b 48bd 817d 31be
00000330: b1e2 df3d 51df 903d 73fe 0b3e 88f7 b93d
00000340: 6869 893c bb8d 2a3b b56d 0a3d 007c 8fbd
00000350: 3245 1dbe 0fe7 8fbe 47ad f83c 7d2e 26bc
00000360: 5436 12be 5b47 69bd 8506 1ebd 49b3 6d3b
00000370: e2d1 bcbd 8d5e a73c c7ab 25bd 18ef acbc
00000380: 3f78 9a3d 7a62 173d ae0a 1f3d 61f1 9ebd
00000390: b2a6 c0bc 7967 a53d cd98 83bd da7f 4fbc
000003a0: c880 a93d eb1b 2abd c355 99bd bb9e 83bd
000003b0: 3cc2 35bd 1b06 cd3d a649 61bb d135 aabd
000003c0: a9ce fbbd a203 a3bd 826a 12bd 2be4 47bc
000003d0: 9968 fa3d 62af 83bd b1ac 063d 080f 87bd
000003e0: 9bad d1bd b6ac 7b3c f438 20be ba46 b8bd
000003f0: e3de 16be 9182 06bd 522d 52be bd19 cdbd
0.05953184 -0.11211624 -0.034900673 -0.071896255 -0.017277595 -0.012464949 0.048509337 0.0650626
0.10687431 0.015167803 0.096633576 -0.14936295 0.03246841 0.047877684 -0.09149606 0.050899636
-0.14402586 -0.045149002 0.17959145 0.0032551298 0.046696745 0.047956996 0.051951032 -0.007583407
0.018701918 0.18076372 0.17679505 -0.08741842 -0.08942563 -0.064409785 -0.16738376 -0.11427286
0.109790735 -0.053669307 0.009584931 -0.002245487 0.14592417 0.077554435 0.1484954 -0.03289352
0.027917411 -0.07504964 0.05764307 0.002938226 0.14083971 0.04670522 0.012221492 -0.068820156
0.1057616 -0.036534417 -0.013357387 -0.13634871 -0.1419776 -0.035623595 0.021730898 -0.10726279
-0.19306985 -0.10302315 -0.08117646 -0.09155947 -0.005662786 -0.07050011 -0.10999894 0.046058655
-0.18014733 -0.083105214 -0.03085614 -0.02241441 0.031023465 -0.056111455 -0.13539787 -0.083157584
-0.11300558 -0.09697758 -0.046753295 -0.04783587 -0.14033522 -0.1617343 -0.014604805 0.01823119
-0.001361347 -0.11769033 -0.05470439 -0.063413374 -0.05973231 -0.07023993 -0.08470918 0.033874396
0.03111393 -0.16245177 0.081550285 0.0103826495 -0.14911969 -0.09462455 -0.041128576 -0.0031413534
-0.03267753 -0.1501915 0.183139 0.016110275 -0.069961175 0.044952888 -0.0052683568 -0.03343692
-0.10469903 0.015826749 0.097537085 -0.06897669 -0.1823462 -0.072211914 0.07714187 -0.044367917
-0.08915573 0.019797288 0.06462793 0.118643716 0.01652567 -0.09286019 -0.14386465 -0.03790388
0.0812239 0.029492993 0.05132066 0.056346472 0.008132141 -0.014200554 0.07894588 0.0877288
-0.054659706 -0.07518694 0.025973158 -0.004579059 0.10203842 0.083495066 0.00085139443 -0.07007259
0.019139158 -0.039034225 -0.015623439 0.09517301 -0.08437996 -0.024827998 -0.18248466 -0.11825272
-0.039640564 -0.022596393 0.036504243 -0.10341761 -0.0049691224 0.067628965 -0.07841883 0.03908976
0.066293366 0.019799048 0.0018236188 0.050925888 -0.102491684 -0.08617159 -0.017016446 -0.13993602
0.14087474 0.050392605 -0.12366335 -0.06851669 -0.09031277 -0.02457989 0.009353969 0.11073648
-0.10934231 -0.019360838 -0.02805287 0.009827892 0.03890706 0.11531491 0.11100879 0.029074028
-0.0144449705 0.05346602 0.029027363 0.0008184087 0.117200926 -0.021419037 0.035730593 -0.056943435
0.121349454 0.22777109 -0.04148688 -0.032418452 -0.046482444 -0.03318655 -0.027729169 0.009087149
0.024746997 0.119859114 -0.052777793 -0.15511131 -0.23897338 -0.13194059 0.005872052 -0.007003043
-0.05056183 0.037590325 -0.048930388 -0.17333032 0.1093191 0.07073844 0.13671283 0.09080416
0.016773894 0.002602442 0.03379603 -0.07006073 -0.15358427 -0.2810597 0.030356063 -0.01014292
-0.14278537 -0.056952816 -0.038580436 0.0036270192 -0.092197195 0.020430828 -0.040447023 -0.021110103
0.07542466 0.03695915 0.038828544 -0.07760883 -0.023516987 0.080763765 -0.06425629 -0.0126647595
0.08276516 -0.04153053 -0.07487061 -0.0642676 -0.04437469 0.1001093 -0.0034376173 -0.08311046
-0.12295277 -0.07959677 -0.035746105 -0.012200396 0.12226982 -0.06429936 0.032879535 -0.06594664
-0.10238191 0.015361002 -0.15646726 -0.08997865 -0.14733462 -0.03283936 -0.20525101 -0.10014675

architecture.0.bias f4 [8]
00000000: 219a 6d3c cfe3 f0bc 9746 e13b 5b54 ad3c
00000010: 61b6 73bc b983 133d 0bfd 47bd 1648 8bbc
0.014502079 -0.029405503 0.00687487 0.021158388 -0.0148750255 0.036014292 -0.048825305 -0.017002147

architecture.1.weight f4 [8]
00000000: c14b 7b3f a226 683f 9979 853f 03a3 853f
00000010: 1ff0 783f 7a8b 7c3f e34d 813f c6a5 823f
0.98162466 0.9068395 1.0427734 1.0440372 0.97241396 0.98650324 1.0101894 1.020684

architecture.1.bias f4 [8]
00000000: e346 cdbb c08a 46bc 871b d73c 6879 953d
00000010: 4eb0 51bd 455a 423d 35cc 0a3d cd1f d4bb
-0.006264554 -0.0121180415 0.026258243 0.07298547 -0.051193528 0.04744937 0.033886153 -0.0064735175

architecture.1.running_mean f4 [8]
00000000: ed46 993e 8691 acbf f614 dfbd 3f0d a83d
00000010: d89d 06bf 9c30 99bf 0565 29bf 569c acbf
0.29936925 -1.348191 -0.1089267 0.082056515 -0.525846 -1.196796 -0.6616977 -1.348521

architecture.1.running_var f4 [8]
00000000: 93b2 0c3d 0d03 0a3e 6e80 e53c 00ee ee3c
00000010: 0e4e 3c3d 0b9b 0d3e 9935 903d f567 093e
0.03434999 0.13477726 0.028015342 0.029166222 0.045972876 0.13828675 0.07041473 0.13418563
