Model_n_Datasets/SimpleNet_model3_test_1.pth (torch, 673090 bytes, 80 tensors)

weight f4 [8, 1, 7, 7]
0.069183856 0.017203398 0.116500296 -0.12302625 0.0024480794 -0.067856394 -0.008835959 0.030051924
0.015357709 -0.02207362 0.05562796 -0.107873194 -0.083767325 0.046378892 0.0863198 0.065690376
-0.08687552 -0.023756504 -0.21523224 0.0027977612 -0.1291357 0.007574247 -0.008927223 0.04094367
-0.029564397 -0.07936163 -0.018093392 0.07360861 -0.05333216 0.0043918067 0.18416171 0.019224312
-0.032959837 -0.034037944 -0.14508191 -0.005021273 -0.018765058 0.029523494 -0.032119706 0.019384045
0.06098592 -0.08204014 -0.019990578 -0.06412305 -0.109084 -0.16740045 0.06488465 0.01985574
0.08991443 -0.09650567 -0.05892129 0.0853494 -0.014044662 0.010356049 -0.021837708 -0.016580708
-0.06140012 -0.06366973 -0.013115173 0.058327865 -0.0018050877 -0.03264884 0.014900391 -0.18510737
-0.06431807 -0.08844175 -0.06021293 -0.055557802 -0.0762759 -0.07233263 -0.08096932 -0.13740912
-0.19032922 -0.028905554 -0.103483476 -0.1375691 -0.055752557 -0.10805299 -0.1082816 -0.076615185
-0.13069414 -0.13660583 -0.096550696 -0.028334096 -0.08566585 -0.08693165 -0.116689324 0.06937494
-0.0041289036 -0.030654496 -0.05311459 -0.064906396 0.03551279 -0.06732277 -0.036065716 -0.026131973
-0.013714487 0.04326933 0.066010274 0.08162689 -0.1737779 0.21966293 -0.0014840019 0.06324524
0.009285876 0.072329596 0.049212582 -0.0026298785 -0.082794316 0.011377923 -0.078318335 0.0057190508
0.038850814 -0.017263027 0.030975707 0.034048434 -0.11630758 0.09929971 0.09830579 0.086331084
-0.026883664 -0.11196269 0.020918654 -0.026991235 0.09463524 -0.05376391 -0.049075354 -0.08182985
-0.030179325 0.010695391 0.0068820333 -0.046555575 -0.0094769355 -0.08515917 0.034374688 -0.03725896
0.063475735 -0.10195969 0.036901508 0.11639335 0.028537884 -0.07816851 0.042249896 -0.120216705
-0.08307409 0.04375136 0.15912147 0.01030456 0.028850622 -0.024752812 -0.0516694 -0.10921673
-0.026697973 -0.085887365 0.02598818 0.04683177 -0.1942804 -0.02887472 0.027818013 -0.20745255
-0.063361675 -0.0029998145 -0.040038493 0.05842099 -0.089579605 -0.055052027 -0.16446781 -0.11554837
-0.05783314 -0.010285736 -0.056623295 -0.07880438 -0.10510485 -0.121520184 -0.0904642 0.07924895
0.06572257 0.072601974 0.001990436 0.03020334 -0.25124118 -0.14298229 0.058438472 0.051669706
-0.008175502 0.017299484 -0.207736 -0.0022978517 -0.13403864 0.08842792 0.10184788 0.03914629
-0.034705553 -0.07364004 -0.027838748 -0.1542391 -0.09431364 -0.041843202 -0.19337477 -0.082788326
-0.046605278 -0.07084801 -0.16420479 0.07080767 0.03054389 -0.10128837 -0.13726191 -0.009173463
-0.01977049 -0.13803738 -0.08371032 0.01166268 -0.06214668 -0.038068354 -0.062977135 0.0049893837
-0.09872942 -0.040800083 0.09958143 0.0054333755 -0.026833165 0.04669265 -0.09807239 -0.09347607
0.03595161 -0.029155934 -0.014232357 -0.07989701 0.015819224 -0.02804057 -0.14952214 0.084072575
-0.15284038 -0.053153884 -0.02249256 -0.059299067 -0.020352967 0.08939779 0.04399239 0.06671476
0.05504151 0.021607244 0.029281978 0.12047571 0.08887927 0.0017068327 -0.064993024 -0.055548374
0.07719628 0.0022713481 0.08089149 -0.06124387 -0.023752898 -0.045556046 -0.02201727 0.1025672
00000000: 44b0 8d3d 24ee 8c3c b597 ee3d 30f5 fbbd
00000010: f56f 203b 4bf8 8abd b3c4 10bc 742f f63c
00000020: e69e 7b3c bdd3 b4bc 25da 633d 9fec dcbd
00000030: 348e abbd cbf7 3d3d 6fc8 b03d ad88 863d
00000040: cbeb b1bd 009d c2bc d765 5cbe a55a 373b
00000050: 263c 04be 6431 f83b 7d43 12bc 8db4 273d
00000060: 0931 f2bc 5a88 a2bd 9838 94bc 1cc0 963d
00000070: d372 5abd 25e9 8f3b e394 3c3e 4e7c 9d3c
00000080: e500 07bd 5f6b 0bbd 5a90 14be 7e89 a4bb
00000090: 2eb9 99bc 41db f13c f48f 03bd 4acb 9e3c
000000a0: 5fcc 793d a904 a8bd 48c3 a3bc f252 83bd
000000b0: 6f67 dfbd 066b 2bbe 3ee2 843d 81a8 a23c
000000c0: 0f25 b83d c4a4 c5bd 7357 71bd abcb ae3d
000000d0: 951b 66bc 6bac 293c fee4 b2bc 44d4 87bc
000000e0: b17e 7bbd 4765 82bd 06e1 56bc 33e9 6e3d
000000f0: b198 ecba caba 05bd c520 743c c98c 3dbe
00000100: 31b9 83bd f320 b5bd d5a1 76bd 9490 63bd
00000110: 8a36 9cbd 2123 94bd 3ed3 a5bd fab4 0cbe
00000120: aae5 42be 57cb ecbc 25ef d3bd eade 0cbe
00000130: cb5c 64bd e34a ddbd bec2 ddbd 6ce8 9cbd
00000140: afd4 05be 66e2 0bbe 5fbc c5bd e81c e8bc
00000150: 9471 afbd 3909 b2bd d0fa eebd 7314 8e3d
00000160: c14b 87bb 231f fbbc af8e 59bd a5ed 84bd
00000170: dc75 113d 85e0 89bd a5b9 13bd b812 d6bc
00000180: bab2 60bc 2e3b 313d 6530 873d 002c a73d
00000190: d5f2 31be 52ef 603e d782 c2ba b886 813d
000001a0: c923 183c 8a21 943d 2293 493d 0a5a 2cbb
000001b0: 1190 a9bd 786a 3a3c 5d65 a0bd e066 bb3b
000001c0: 0822 1f3d 316b 8dbc c4c0 fd3c 5f76 0b3d
000001d0: ab32 eebd a55d cb3d 8c54 c93d 5ace b03d
000001e0: 213b dcbc b24c e5bd 995d ab3c b91c ddbc
000001f0: 1fd0 c13d 8c37 5cbd 3d03 49bd 6996 a7bd
00000200: a23a f7bc b93b 2f3c ae82 e13b 0fb1 3ebd
00000210: 2645 1bbc ee67 aebd 79cc 0c3d da9c 18bd
00000220: 91ff 813d 3ed0 d0bd 0926 173d a35f ee3d
00000230: 48c8 e93c d016 a0bd 3a0e 2d3d 2d34 f6bd
00000240: c022 aabd a034 333d bdf0 223e 75d4 283c
00000250: 2458 ec3c 69c6 cabc 4ba3 53bd 05ad dfbd
00000260: b5b5 dabc b7e5 afbd 2ae5 d43c acd2 3f3d
00000270: 71f1 46be ad8a ecbc 9ae2 e33c 716e 54be
00000280: c4c3 81bd 8998 44bb 67ff 23bd d94a 6f3d
00000290: 8375 b7bd 3c7e 61bd 406a 28be a0a4 ecbd
000002a0: 71e2 6cbd 8185 28bc d4ed 67bd 3164 a1bd
000002b0: 3641 d7bd 93df f8bd 4b45 b9bd 464d a23d
000002c0: 8e99 863d 58b0 943d fa71 023b ff6c f73c
000002d0: afa2 80be f369 12be 2e5d 6f3d 9da3 533d
000002e0: 8af2 05bc a6b7 8d3c bfb8 54be 8e97 16bb
000002f0: 6d41 09be b319 b53d 9f95 d03d dc57 203d
00000300: 6927 0ebd 97d0 96bd 160e e4bc dbf0 1dbe
00000310: 8227 c1bd c763 2bbd 0904 46be ed8c a9bd
00000320: 2de5 3ebd c318 91bd 4d25 28be 9d03 913d
00000330: 2e37 fa3c 4770 cfbd 638e 0cbe 4b4c 16bc
00000340: b9f5 a1bc ac59 0dbe 5170 abbd d314 3f3c
00000350: 848d 7ebd 90ed 1bbd 28fa 80bd fc7d a33b
00000360: a632 cabd fd1d 27bd 59f1 cb3d 750a b23b
00000370: 3ad1 dbbc cb40 3f3d 2dda c8bd 6270 bfbd
00000380: ff41 133d 6dd8 eebc d52e 69bc 0ba1 a3bd
00000390: 5197 813c 56b5 e5bc 551c 19be 3e2e ac3d
000003a0: 3082 1cbe e3b7 59bd 5142 b8bc 94e3 72bd
000003b0: 44bb a6bc 3016 b73d 5d31 343d c0a1 883d
000003c0: 3573 613d ad01 b13c c2e0 ef3c f8bb f63d
000003d0: 5606 b63d cdb7 df3a 101b 85bd b186 63bd
000003e0: 1519 9e3d e6da 143b 70aa a53d dada 7abd
000003f0: 7095 c2bc fa98 3abd 905d b4bc c10e d23d

bias f4 [8]
0.0198386 -0.01615811 0.05360134 0.038139537 0.021557776 -0.0030313318 -0.000577707 -0.0012828852
00000000: 8f84 a23c 035e 84bc 148d 5b3d 3438 1c3d
00000010: ef99 b03c 4fa9 46bb 4371 17ba 7c26 a8ba

weight f4 [8]
1.032425 1.100124 0.9911086 0.99837506 0.92237186 1.0057472 0.9141397 1.0264585
00000000: 8126 843f ddd0 8c3f 4bb9 7d3f 8295 7f3f
00000010: 9020 6c3f 53bc 803f 0f05 6a3f fe62 833f

bias f4 [8]
0.03891762 0.05770628 -0.011453977 0.11388089 -0.022299945 0.08599787 -0.05704048 0.080026954
00000000: 1568 1f3d 6c5d 6c3d 76a9 3bbc 623a e93d
00000010: 60ae b6bc a71f b03d 47a3 69bd 2ce5 a33d

running_mean f4 [8]
-0.25876674 -1.1541077 0.1271906 -0.81484723 -0.5686576 0.24067736 -0.73991513 -0.016840233
00000000: 137d 84be cdb9 93bf 413e 023e d499 50bf
00000010: 8b93 11bf 2074 763e 146b 3dbf 87f4 89bc

running_var f4 [8]
0.03029705 0.106906205 0.02438426 0.118495174 0.06282808 0.026351955 0.0730532 0.03336007
00000000: 8531 f83c a4f1 da3d 80c1 c73c 99ad f23d
00000010: 02ac 803d 0ee0 d73c eb9c 953d 92a4 083d

weight f4 [16, 8, 5, 5]
0.014967359 0.027281845 -0.05691934 -0.053337507 -0.122595 0.053205132 0.034332592 -0.044645257
-0.045723744 -0.10224832 0.016707972 -0.029764658 -0.036940303 0.022887934 -0.070143364 -0.08740893
0.08006039 0.008566809 0.15811189 0.06340822 0.003968046 0.029299432 0.06512806 0.09567014
0.019280763 -0.045215566 -0.0248129 0.109968595 0.0152026275 0.08175333 -0.04788554 0.07765857
-0.020063035 0.100610614 0.0034487834 -0.006004345 -0.10224768 -0.15051527 0.06926281 -0.018364798
-0.13355125 -0.013133844 -0.060195193 0.028768178 0.00079737935 0.04139182 -0.0029145996 0.103978075
-0.09623006 -0.098846175 -0.009853437 -0.10833049 -0.2399904 0.005112197 0.049698696 -0.11955619
-0.028433684 -0.16460174 -0.1083031 -0.11073143 -0.10005772 -0.065979555 -0.11076687 -0.09892342
-0.1047119 0.15793094 -0.10123999 -0.076730505 -0.040438138 -0.15357955 0.025011756 -0.0037054787
-0.026916152 -0.09808689 0.07381382 0.14702651 0.044032257 0.067714326 -0.08832644 0.13020746
0.13750891 0.10167854 -0.04755785 0.015680807 0.021040328 0.15077218 0.09756428 -0.0138020525
-0.13194117 -0.06749957 -0.0054473453 0.11011783 -0.07463308 0.042365 0.045261186 -0.0023317733
0.009244135 0.00447639 0.1655193 -0.053275287 -0.045542706 -0.044765204 0.0762137 0.014907839
0.052703034 4.237171e-05 -0.015190444 0.022036707 0.038446337 0.02562836 -0.08952215 0.033383716
-0.0035514815 0.049653783 -0.049397863 0.045199815 0.035971243 -0.024674146 -0.045936853 -0.06766432
0.04096651 0.019372879 -0.00855967 0.008292417 0.0074292244 -0.103284925 -0.029444141 -0.1956459
-0.13300511 -0.13547775 -0.10189303 -0.055691596 -0.055049513 -0.17477341 -0.08750022 0.048710823
0.0075145587 -0.050831985 -0.011947208 -0.08921689 -0.054683395 -0.04724523 -0.048986103 -0.06798031
-0.019066527 0.0029021674 0.0060950792 0.06494733 0.06826331 -0.11857358 0.021648549 -0.07006923
-0.0053766295 0.054570816 0.12110392 0.004146908 -0.025963793 -0.012329326 0.013953819 -0.063834205
-0.11834803 -0.023307476 -0.102881975 0.012696448 -0.030465247 -0.04956896 0.029865922 0.006256591
-0.015695624 0.07577244 0.027826147 0.0045312108 -0.042270053 0.028395476 0.047261517 -0.10435847
-0.118335046 -0.07375998 0.041359983 -0.09225466 -0.0049332785 -0.084152795 -0.12455408 -0.12359678
-0.09818955 0.037306678 0.016354552 0.022672826 -0.02013271 0.03486082 0.02590183 -0.031368304
0.07430526 -0.046989173 -0.0636736 -0.07603681 0.12102319 0.10599689 -0.035613112 -0.015703486
-0.00533212 0.013900202 -0.0061340374 -0.05684282 0.009643349 0.0670895 -0.008170517 -0.052238964
-0.120576985 0.037467103 -0.048222564 0.050374772 0.03895927 -0.102328695 -0.09793699 -0.014980388
0.017646816 0.055069584 -0.06264828 0.036343016 -0.06477261 -0.113555275 0.04747282 0.0038933845
-0.10676337 0.0075276433 -0.0028173635 0.047659244 0.091091 0.00527312 0.07363215 0.02171412
0.060128517 0.021688793 0.09842498 -0.021414572 0.011595851 0.024103144 0.12627977 -0.03108866
-0.031578228 0.054470483 0.03285656 0.02213344 0.023990996 -0.006299519 -0.111442685 -0.05883406
0.02827901 -0.0020589307 -0.02589151 -0.11988475 -0.09541 -0.008114263 -0.07290812 -0.032143462
00000000: a739 753c 2d7e df3c 4124 69bd 6e78 5abd
00000010: 1613 fbbd a0ed 593d 55a0 0c3d f2dd 36bd
00000020: d248 3bbd 9167 d1bd 28df 883c 03d5 f3bc
00000030: b74e 17bd 7a7f bb3c 53a7 8fbd 7403 b3bd
00000040: b4f6 a33d cd5b 0c3c 15e8 213e 2bdc 813d
00000050: 6206 823b 5d05 f03c dc61 853d b5ee c33d
00000060: b1f2 9d3c f533 39bd 6c44 cbbc 3737 e13d
00000070: 7114 793c 4a6e a73d a123 44bd 750b 9f3d
00000080: 3c5b a4bc f00c ce3d fc04 623b 19c0 c4bb
00000090: 3b67 d1bd ad20 1abe a9d9 8d3d c671 96bc
000000a0: a9c1 08be 562f 57bc 3c8f 76bd 3eab eb3c
000000b0: 3907 513a 788a 293d de02 3fbb 75f2 d43d
000000c0: 4414 c5bd dd6f cabd 4f70 21bc 60dc ddbd
000000d0: 0bc0 75be 3784 a73b dc90 4b3d e0d9 f4bd
000000e0: c2ed e8bc 5c8d 28be 04ce ddbd 29c7 e2bd
000000f0: 10eb ccbd 4a20 87bd bed9 e2bd 5d98 cabd
00000100: 3173 d6bd a6b8 213e e956 cfbd e224 9dbd
00000110: 76a2 25bd f543 1dbe 74e5 cc3c 9ed7 72bb
00000120: 437f dcbc c8e1 c8bd b32b 973d 1e8e 163e
00000130: 2b5b 343d cfad 8a3d 7ee4 b4bd 1b55 053e
00000140: 23cf 0c3e d73c d03d 05cc 42bd 0975 803c
00000150: c45c ac3c 0664 1a3e c8cf c73d 0122 62bc
00000160: 961b 07be 373d 8abd a57f b2bb 7585 e13d
00000170: 3ad9 98bd ec86 2d3d cb63 393d aad0 18bb
00000180: b674 173c aeae 923b e47d 293e 3037 5abd
00000190: fd8a 3abd b85b 37bd ee15 9c3d 0240 743c
000001a0: 23df 573d 47b8 3138 57e1 78bc 5386 b43c
000001b0: e879 1d3d 91f2 d13c 6457 b7bd 5dbd 083d
000001c0: f9bf 68bb c461 4b3d 6a55 4abd 7123 393d
000001d0: 9556 133d 6f21 cabc 4828 3cbd 9793 8abd
000001e0: 80cc 273d dfb3 9e3c dc3d 0cbc ebdc 073c
000001f0: da70 f33b 0c87 d3bd d734 f1bc 6657 48be
00000200: 7e32 08be aeba 0abe 4bad d0bd df1c 64bd
00000210: 997b 61bd cdf7 32be 5133 b3bd 0085 473d
00000220: b03c f63b 3335 50bd 39be 43bc 58b7 b6bd
00000230: b2fb 5fbd 3784 41bd a7a5 48bd 4339 8bbd
00000240: 6831 9cbc 4a32 3e3b 3bb9 c73b 1b03 853d
00000250: a2cd 8b3d b5d6 f2bd 4c58 b13c 7580 8fbd
00000260: 702e b0bb a685 5f3d 5505 f83d c9e2 873b
00000270: 05b2 d4bc f100 4abc 8f9e 643c 82bb 82bd
00000280: 7460 f2bd 52ef bebc c9b3 d2bd c304 503c
00000290: 4192 f9bc d208 4bbd 61a9 f43c 1704 cd3b
000002a0: 1c94 80bc 952e 9b3d a9f3 e33c 8d7a 943b
000002b0: 5d23 2dbd a19d e83c 4b95 413d e5b9 d5bd
000002c0: a559 f2bd 790f 97bd 1669 293d 03f0 bcbd
000002d0: 57a7 a1bb 4d58 acbd 3616 ffbd 4f20 fdbd
000002e0: 9a17 c9bd e3ce 183d fbf9 853c 5dbc b93c
000002f0: 5aed a4bc 38ca 0e3d 1330 d43c 0d7c 00bd
00000300: 5b2d 983d b877 40bd 4e67 82bd 30b9 9bbd
00000310: 02db f73d e614 d93d 0edf 11bd 99a4 80bc
00000320: 11b9 aebb acbd 633c 0900 c9bb 04d4 68bd
00000330: 23ff 1d3c 3866 893d a2dd 05bc 86f8 55bd
00000340: 11f1 f6bd 1b77 193d 0685 45bd c755 4e3d
00000350: c193 1f3d b591 d1bd 3093 c8bd 4d70 75bc
00000360: 0e90 903c a590 613d be4d 80bd 6adc 143d
00000370: 81a7 84bd ab8f e8bd dc72 423d 2728 7f3b
00000380: c1a6 dabd 73aa f63b 84a3 38bb 5736 433d
00000390: eb8d ba3d 23ca ac3b 74cc 963d cfe1 b13c
000003a0: 5249 763d b2ac b13c 0993 c93d 9d6d afbc
000003b0: 86fc 3d3c f573 c53c 7c4f 013e a5ad febc
000003c0: 2c58 01bd 711c 5f3d 9a94 063d 3051 b53c
000003d0: c488 c43c 326c cebb 103c e4bd fcfb 70bd
000003e0: 62a9 e73c 20ef 06bb 6f1a d4bc 2386 f5bd
000003f0: 5166 c3bd b0f1 04bc da50 95bd dda8 03bd

bias f4 [16]
-0.06168493 -0.0036816937 0.01213223 0.02062847 -0.050828125 0.03310025 -0.021915982 0.013997286
0.0023077675 -0.039270133 -0.056226607 -0.044145245 0.0030844028 -0.025458414 -0.04255697 -0.036581878
00000000: 56a9 7cbd 9248 71bb 43c6 463c 0afd a83c
00000010: 2731 50bd 2194 073d 2589 b3bc df54 653c
00000020: ea3d 173b b8d9 20bd df4d 66bd a5d1 34bd
00000030: b123 4a3b 2a8e d0bc 3850 2ebd e1d6 15bd

weight f4 [16]
1.0475425 1.056102 0.95108634 0.9420497 0.95938224 1.0097936 1.0253121 1.0039959
0.99180144 1.0673103 0.99909276 0.9775122 1.0054588 1.0010133 1.0099585 1.02161
00000000: df15 863f 5a2e 873f 657a 733f 2b2a 713f
00000010: 139a 753f eb40 813f 6d3d 833f f082 803f
00000020: b3e6 7d3f a09d 883f 8bc4 7f3f 3d3e 7a3f
00000030: e0b2 803f 3421 803f 5246 813f 1ec4 823f

bias f4 [16]
0.028815793 0.015121655 -0.05677708 -0.015794674 -0.07140337 0.04310479 -0.017777931 0.07621592
-0.048916295 0.06949613 0.05601194 -0.038989235 -0.0095405355 0.06979793 0.074655354 0.008760828
00000000: 190f ec3c d1c0 773c 158f 68bd d563 81bc
00000010: ee3b 92bd a68e 303d 06a3 91bc 1817 9c3d
00000020: 745c 48bd fd53 8e3d c76c 653d 2db3 1fbd
00000030: e84f 1cbc 38f2 8e3d e8e4 983d 9389 0f3c

running_mean f4 [16]
-1.34866 -0.71450543 -1.9873568 0.088744424 -1.2205126 -0.8190786 -0.28647432 -1.1324884
1.434835 -1.1214277 -0.8959233 -0.41119874 0.82776564 -0.08127363 -0.30153972 0.27464858
00000000: e4a0 acbf d4e9 36bf b561 febf a3bf b53d
00000010: c239 9cbf 23af 51bf c3ac 92be 61f5 90bf
00000020: aca8 b73f f18a 8fbf 3b5b 65bf a488 d2be
00000030: 73e8 533f ca72 a6bd 6a63 9abe bd9e 8c3e

running_var f4 [16]
0.7751082 1.7013034 0.8826511 0.46560284 1.2174644 1.3745809 0.9133827 2.17291
1.2622799 0.7308594 1.8289425 1.5586146 1.9527584 1.3760967 0.60390043 0.47836742
00000000: 7e6d 463f 4fc4 d93f 6cf5 613f 7f63 ee3e
00000010: e0d5 9b3f 44f2 af3f 73d3 693f f510 0b40
00000020: 6392 a13f 9a19 3b3f ca1a ea3f af80 c73f
00000030: fdf3 f93f f023 b03f 3899 1a3f 93ec f43e

weight f4 [16, 16, 5, 5]
0.02514244 -0.019351864 -0.0023462803 -0.0066740904 -0.045663416 -0.048578847 -0.039197747 -0.017993724
-0.007656143 0.04036631 -0.05262811 0.0041968357 -0.00045516164 -0.024858171 0.0041346825 -0.03508184
0.011392495 -0.044299796 0.040119607 -0.008298303 -0.07952098 -0.041525185 0.020215724 0.08130545
0.032474015 -0.068785325 -0.069340356 -0.06367737 -0.018422542 -0.059342083 -0.074087925 -0.067812115
-0.08517265 -0.1552859 -0.028574154 -0.050070938 -0.08862121 -0.15424375 -0.049705736 -0.10398918
0.05935819 -0.034417003 -0.07711516 -0.12011377 -0.052675515 0.03579731 -0.009510673 -0.04137912
-0.060224097 -0.14342386 -0.014411985 0.012523581 0.045057904 0.018138604 0.055351213 -0.100708656
-0.03765037 -0.1012729 0.05388763 0.10178667 -0.015753424 0.096518874 5.2201747e-05 0.06865379
-0.050256662 -0.028274281 0.08391496 -0.008725074 0.0026884745 -0.0028503824 -0.054249823 0.026192443
-0.07630228 0.072031066 0.050443787 0.029021349 0.0006079435 0.04396112 0.012349491 -0.0027787543
-0.060856428 -0.0067452244 0.011979594 0.02944037 -0.11868145 0.04929661 0.035433203 -0.031797927
-0.017453717 -0.0614202 0.06663133 0.040358856 0.03389535 -0.04047697 -0.03710385 0.047033004
0.08249615 0.019205043 -0.045365192 -0.054246645 0.006776107 0.040966988 -0.070493005 0.004543932
0.011561126 0.060739264 0.030579818 0.06199987 0.07542656 0.052653465 0.039021794 -0.011260256
-0.0022934037 -0.053279433 0.030841656 0.09560007 0.026683994 -0.029188156 -0.029318593 -0.027939916
0.025131574 0.087483935 0.047287364 0.055738572 -0.01721514 0.01394742 -0.10461332 -0.16115922
-0.13267893 -0.18180895 -0.10359318 -0.04639285 -0.049468383 -0.038797814 -0.025194775 0.056471772
0.03506269 0.018341236 -0.074776545 0.033029836 -0.016002323 0.047862235 0.010194673 -0.04307829
0.056755375 0.026196335 0.0177834 0.0518033 0.0716842 0.025014179 -0.063509844 -0.046271168
0.018657114 0.0019827785 0.09066281 0.054764666 -0.011342289 0.06109316 -0.0022585988 -0.07016819
-0.11236042 0.029669316 -0.030793773 -0.022230055 -0.15230529 -0.071577 0.018738115 -0.045970667
0.06830468 -0.05676264 0.006901213 0.016161729 -0.023673797 -0.042955954 -0.014957732 0.036855973
-0.052822966 0.019845929 -0.088890314 0.025502482 -0.016814427 0.034739845 0.007066233 0.050433688
0.037359074 0.04275335 -0.07199564 0.047054805 0.023888605 -0.012797467 0.05143475 0.012564493
0.011054483 0.04223521 -0.04943198 0.05036754 0.08867159 -0.04721285 0.012073301 0.012271934
-0.030086244 -0.040232986 -0.06799953 -0.017312642 -0.075765476 -0.034758613 0.025845641 -0.0032041576
0.048860483 -0.054736767 -0.047061086 0.020805404 -0.0268198 -0.09652973 -0.104402445 -0.0122570135
-0.038352117 -0.041697156 -0.055076677 -0.03380615 0.048362195 -0.026343575 0.11229147 -0.005961142
0.059240848 0.037278224 -0.09216744 0.015129358 -0.10155722 -0.07976207 0.057008278 0.057176836
-0.07532705 -0.08562715 -0.048924368 -0.022137683 -0.05519257 0.013169793 -0.075923115 -0.092917696
-0.111424334 -0.18787949 -0.02818982 -0.035221104 -0.10089653 -0.02799446 -0.13053358 -0.00016750007
-0.08924034 -0.061450087 -0.095061645 -0.13297112 0.046782747 0.10515881 -0.097724214 0.026956968
00000000: 85f7 cd3c cd87 9ebc 0dc4 19bb 54b2 dabb
00000010: 9009 3bbd 9dfa 46bd d18d 20bd 9367 93bc
00000020: 62e0 fabb 2557 253d 9390 57bd 9c85 893b
00000030: c3a2 eeb9 5da3 cbbc 3b7c 873b fab1 0fbd
00000040: 96a7 3a3c b473 35bd 7554 243d 9bf5 07bc
00000050: e5db a2bd 5016 2abd 729b a53c 7983 a63d
00000060: 7903 053d 52df 8cbd 5102 8ebd 4869 82bd
00000070: dfea 96bc af10 73bd 69bb 97bd 14e1 8abd
00000080: 006f aebd 4403 1fbe 5814 eabc 2f17 4dbd
00000090: 097f b5bd 13f2 1dbe 3e98 4bbd 47f8 d4bd
000000a0: 9321 733d d8f8 0cbd 8eee 9dbd 35fe f5bd
000000b0: 48c2 57bd 33a0 123d a7d2 1bbc 277d 29bd
000000c0: 8bad 76bd b4dd 12be 3f20 6cbc b52f 4d3c
000000d0: a38e 383d 6997 943c f4b7 623d 5740 cebd
000000e0: 4637 1abd 2b68 cfbd 47b9 5c3d 8875 d03d
000000f0: 530d 81bc b0ab c53d 33f3 5a38 5c9a 8c3d
00000100: eed9 4dbd 779f e7bc 9bdb ab3d 9df3 0ebc
00000110: 1e31 303b 7bcd 3abb 1035 5ebd 8991 d63c
00000120: 5f44 9cbd 0685 933d 259e 4e3d 2ebe ed3c
00000130: 665e 1f3a 9310 343d 8555 4a3c c31b 36bb
00000140: 9744 79bd 0b07 ddbb 0f46 443c ee2c f13c
00000150: 430f f3bd 3eeb 493d 6822 113d 8b3e 02bd
00000160: 19fb 8ebc bf93 7bbd 0276 883d 544f 253d
00000170: dad5 0a3d 2ecb 25bd 35fa 17bd aea5 403d
00000180: bef3 a83d e553 9d3c dad0 39bd bb31 5ebd
00000190: 1b0a de3b 00cd 273d a35e 90bd 44e5 943b
000001a0: e16a 3d3c bcc9 783d 8782 fa3c 93f3 7d3d
000001b0: 3e79 9a3d 29ab 573d 51d5 1f3d f07c 38bc
000001c0: ee4c 16bb 893b 5abd a4a7 fc3c f8c9 c33d
000001d0: 6498 da3c 001c efbc 8c2d f0bc 40e2 e4bc
000001e0: bbe0 cd3c c72a b33d 65b0 413d 214e 643d
000001f0: c406 8dbc b883 643c 823f d6bd ec06 25be
00000200: fcdc 07be 202c 3abe a928 d4bd 6e06 3ebd
00000210: 5c9f 4abd 75ea 1ebd 4665 cebc f24e 673d
00000220: e59d 0f3d 5c40 963c 7224 99bd 4b4a 073d
00000230: 4e17 83bc 310b 443d 8f07 273c dc72 30bd
00000240: 5378 683d b299 d63c 7eae 913c b22f 543d
00000250: 2acf 923d 89ea cc3c 7311 82bd d686 3dbd
00000260: ced6 983c 81f1 013b 6cad b93d ea50 603d
00000270: 02d5 39bc d23c 7a3d 0005 14bb 57b4 8fbd
00000280: 381d e6bd 110d f33c 3943 fcbc ce1b b6bc
00000290: ebf5 1bbe f696 92bd ad80 993c bd4b 3cbd
000002a0: 53e3 8b3d f17f 68bd 9223 e23b 9a65 843c
000002b0: 8def c1bc 95f2 2fbd 4611 75bc 4af6 163d
000002c0: e55c 58bd ee93 a23c 200c b6bd 95ea d03c
000002d0: 69be 89bc 5e4b 0e3d dc8b e73b 8e93 4e3d
000002e0: d405 193d 231e 2f3d 7372 93bd 8abc 403d
000002f0: 09b2 c33c 78ac 51bc 3fad 523d 4edb 4d3c
00000300: dd1d 353c d4fe 2c3d 3079 4abd 324e 4e3d
00000310: 7399 b53d 4362 41bd 18cf 453c 3910 493c
00000320: 6d77 f6bc 58cb 24bd 5643 8bbd 3ed3 8dbc
00000330: ee2a 9bbd 0c5f 0ebd 3dba d33c d8fc 51bb
00000340: ee21 483d a933 60bd 20c3 40bd 1870 aa3c
00000350: 32b5 dbbc 61b1 c5bd f3d0 d5bd a4d1 48bc
00000360: 1c17 1dbd a3ca 2abd 1598 61bd 5178 0abd
00000370: 7017 463d 7bce d7bc 12f9 e53d af55 c3bb
00000380: 88a6 723d 0db1 183d 48c2 bcbd 20e1 773c
00000390: 3bfd cfbd 4c5a a3bd 8381 693d 4232 6a3d
000003a0: 1245 9abd 4a5d afbd eb64 48bd 165a b5bc
000003b0: 9b11 62bd 1ec6 573c 947d 9bbd a24b bebd
000003c0: 7132 e4bd 7b63 40be 56ee e6bc 0144 10bd
000003d0: d7a2 cebd a354 e5bc 98aa 05be f5a2 2fb9
000003e0: a4c3 b6bd 16b3 7bbd aeaf c2bd 9529 08be
000003f0: 449f 3f3d 815d d73d a223 c8bd dcd4 dc3c

bias f4 [16]
0.019846339 -0.021987073 -0.0030577127 -0.01274657 0.054962993 -0.047224402 -0.028610265 -0.0071663177
-0.043184344 0.013444691 0.034862246 -0.0069842828 -0.020702034 0.032476667 0.04292153 -0.043877583
00000000: ca94 a23c 3c1e b4bc e863 48bb fdd6 50bc
00000010: e020 613d 606e 41bd 1360 eabc 6ed3 eabb
00000020: 11e2 30bd 1f47 5c3c b7cb 0e3d 69dc e4bb
00000030: 5097 a9bc 4106 053d 7cce 2f3d fbb8 33bd

weight f4 [16]
1.0215967 1.0400342 1.0303905 0.9624793 0.9703889 0.9820353 0.9125005 1.014777
1.0413504 0.95871353 1.0190308 0.9633709 0.96822053 0.94690543 1.0708977 1.1548198
00000000: aec3 823f d71f 853f d6e3 833f 0b65 763f
00000010: 686b 783f aa66 7b3f a299 693f 36e4 813f
00000020: f84a 853f 406e 753f 9a6f 823f 7a9f 763f
00000030: 4ddd 773f 6568 723f 2d13 893f 23d1 933f

bias f4 [16]
0.09132858 0.06239104 0.05088562 -0.019384392 -0.02937967 0.0017088985 0.013661959 0.103143714
0.04080749 0.024949385 0.0630692 -0.042704184 0.0058758412 -0.014665296 0.101712406 0.050145023
00000000: 7b0a bb3d bf8d 7f3d 716d 503d 04cc 9ebc
00000010: a2ad f0bc 1efd df3a 69d6 5f3c 033d d33d
00000020: c125 273d a762 cc3c 6d2a 813d 95ea 2ebd
00000030: 218a c03b b646 70bc 984e d03d de64 4d3d

running_mean f4 [16]
-1.9453635 -2.5279083 -0.6419933 0.64520335 0.44746917 0.08561472 -0.82372373 -1.4494652
-0.6078799 -1.9586843 -0.540019 -0.9319249 -0.58619887 -2.0844028 -2.3588047 -0.091216944
00000000: ac01 f9bf 40c9 21c0 ac59 24bf 0c2c 253f
00000010: ae1a e53e c556 af3d 8fdf 52bf 1388 b9bf
00000020: 049e 1bbf 2bb6 fabf af3e 0abf a192 6ebf
00000030: 2111 16bf db66 05c0 a8f6 16c0 f3cf babd

running_var f4 [16]
8.053849 1.6971487 1.4482902 4.844912 1.3213634 7.0225286 9.29246 10.042963
1.4623429 12.139016 10.932772 0.91402173 0.5611703 3.791974 1.5291253 1.2537854
00000000: 91dc 0041 2b3c d93f 9361 b93f 8509 9b40
00000010: 7022 a93f 8eb8 e040 ebad 1441 faaf 2041
00000020: 0d2e bb3f 6939 4241 a2ec 2e41 54fd 693f
00000030: dba8 0f3f b4af 7240 61ba c33f 0a7c a03f

weight f4 [1, 16, 5, 5]
0.06253185 0.059647344 -0.05662749 -0.038679466 -0.042950302 0.043509807 0.085561514 -0.102471225
-0.110032395 -0.15807801 0.041451905 0.09477773 0.04506653 -0.033860732 0.050732736 -0.04831773
0.09120756 0.13119924 0.03715901 0.18293978 0.09372379 -0.07493848 -0.025707392 0.04875768
0.12943162 -0.0766769 -0.116390936 0.016451057 -0.0613104 -0.1280933 -0.0772613 0.04490171
-0.0287802 -0.15146367 -0.05372921 -0.10879381 0.011435153 -0.08547089 -0.17522185 -0.08057474
-0.028499922 -0.07237804 -0.052699503 -0.13208266 -0.08798957 0.035304733 0.016526653 0.07704097
-0.011763987 -0.10143226 0.033666432 0.16756804 0.056626383 0.19943321 0.121028304 0.08281518
0.027153455 0.062841445 0.0094289025 0.024338976 -0.029411132 0.0026628005 0.1945763 0.10099002
0.059135817 -0.033669777 0.026412316 0.026763787 0.025102604 -0.06990316 0.01675195 0.060058225
0.0059309066 -0.00562503 0.023737391 -0.000555966 -0.0484665 -0.018453203 -0.15903164 0.093256705
0.1114114 0.015917573 -0.036957327 -0.0729259 -0.13754736 0.018736318 -0.06813431 0.009837845
-0.027523438 -0.040987782 0.1431879 0.023310272 -0.0022561955 -0.080461495 0.017647926 0.08855851
0.046077445 0.057314295 0.0010047645 -0.033887085 0.026512723 -0.02748525 0.0012100338 -0.042537156
-0.0905058 0.040052254 -0.0049376446 -0.010120775 -0.07018034 -0.02412408 -0.03291006 -0.045447554
-0.087110505 -0.102335155 0.058818873 0.04023664 0.07488675 0.080730505 -0.049801607 -0.10054978
0.10206097 0.060040377 0.07647251 0.042982113 0.05184615 0.056641154 -0.0019672457 -0.02153715
-0.1422912 -0.060784627 0.19369897 0.08511445 0.07963868 0.027590372 -0.034316696 0.11170868
0.030276263 0.040289845 -0.07847796 -0.07247779 0.090164065 -0.012937099 -0.037431777 -0.034563925
-0.051234115 0.21863317 0.002742704 -0.12353056 -0.038561378 0.04068751 0.09119179 -0.08226592
0.03996293 0.055516466 -0.06523149 0.107608445 0.0535312 0.03594566 -0.035799492 -0.028499864
-0.03900346 -0.009444868 -0.020771472 0.09300579 -0.08227068 -0.053383805 0.06877756 0.0016067848
-0.019215858 0.0024623773 -0.061641995 -0.071918786 -0.03624058 -0.04300891 -0.01640589 -0.009134849
0.003932141 -0.10901807 -0.113016166 0.10446672 0.016648402 -0.07226689 -0.09487213 0.016319463
0.04353194 -0.07701406 0.04425405 0.040111694 0.05393913 0.051855695 -0.0017103357 0.123177186
0.08909433 0.050577022 0.13557608 0.028247287 0.08544547 0.121210486 0.11953817 0.17447375
0.097362466 0.20635033 -0.058448907 0.0661464 0.12942663 -0.021413567 0.06733971 0.034389388
0.0049292706 0.2962784 0.12211313 0.14525214 0.108272985 0.13358876 0.056313228 -0.109937996
0.061826646 0.032957304 0.11963026 0.07430612 0.017290076 -0.055357616 0.017925277 -0.07226063
-0.070924304 0.021465551 0.052351624 -0.06766798 -0.0019112333 -0.003846093 0.043262433 -0.039689306
0.006372158 0.02756143 -0.0851294 0.013262554 0.07308919 0.015458499 0.011408083 -0.023969948
0.09791065 0.054371785 0.0032170028 -0.0014517218 0.050760336 0.039942447 0.10405205 0.11244989
-0.08702267 0.046768554 0.06971598 -0.045439404 0.0032922511 0.028184764 -0.05178288 0.19528577
00000000: b310 803d c650 743d 3af2 67bd 5c6e 1ebd
00000010: a8ec 2fbd 5737 323d e03a af3d 6fdc d1bd
00000020: aa58 e1bd 34df 21be 79c9 293d d41a c23d
00000030: af97 383d 8db1 0abd 21cd 4f3d d0e8 45bd
00000040: 07cb ba3d 1859 063e 0c34 183d 9154 3b3e
00000050: 42f2 bf3d 5979 99bd 4f98 d2bc 22b6 473d
00000060: b989 043e c708 9dbd 5f5e eebd 5ec4 863c
00000070: 9d20 7bbd e42a 03be 2c3b 9ebd dbea 373d
00000080: 74c4 ebbc 4b19 1bbe 2913 5cbd 4acf debd
00000090: 825a 3b3c 5d0b afbd 5b6d 33be 5f04 a5bd
000000a0: ab78 e9bc f03a 94bd 6fdb 57bd ad40 07be
000000b0: e033 b4bd b29b 103d e762 873c a8c7 9d3d
000000c0: bdbd 40bc b7bb cfbd d0e5 093d f596 2b3e
000000d0: 11f1 673d 3838 4c3e b0dd f73d 019b a93d
000000e0: ec70 de3c 04b3 803d af7b 1a3c 8862 c73c
000000f0: 9def f0bc 6182 2e3b 023f 473e dbd3 ce3d
00000100: 6638 723d 52e9 09bd a45e d83c bb3f db3c
00000110: faa3 cd3c 6329 8fbd 633b 893c 9dff 753d
00000120: 0d58 c23b 2c52 b8bb eb74 c23c 3fbe 11ba
00000130: cf84 46bd 2c2b 97bc 31d9 22be 5ffd be3d
00000140: a92b e43d 9265 823c 9160 17bd 2d5a 95bd
00000150: 37d9 0cbe e87c 993c 008a 8bbd ea2e 213c
00000160: d578 e1bc cee2 27bd d99f 123e 2ff5 be3c
00000170: aedc 13bb ffc8 a4bd 6292 903c 2a5e b53d
00000180: b4bb 3c3d 65c2 6a3d 4db2 833a 2fcd 0abd
00000190: 3631 d93c bf28 e1bc ff99 9e3a 713b 2ebd
000001a0: 1b5b b9bd d50d 243d f7cb a1bb 9bd1 25bc
000001b0: b6ba 8fbd dd9f c5bc b3cc 06bd 3727 3abd
000001c0: fe66 b2bd 1895 d1bd 0fec 703d 2dcf 243d
000001d0: 395e 993d 0956 a53d c5fc 4bbd 0bed cdbd
000001e0: 5805 d13d e6ec 753d 9f9d 9c3d 030e 303d
000001f0: a15c 543d 8e00 683d e8ec 00bb ad6e b0bc
00000200: c9b4 11be 4df9 78bd 0659 463e 7c50 ae3d
00000210: 9b19 a33d 3405 e23c aa8f 0cbd 85c7 e43d
00000220: ed05 f83c f706 253d 0db9 a0bd 3c6f 94bd
00000230: f0a7 b83d 20f6 53bc 1052 19bd e792 0dbd
00000240: ddda 51bd 60e1 5f3e f0be 333b 97fd fcbd
00000250: 89f2 1dbd f2a7 263d c3c2 ba3d 097b a8bd
00000260: 2bb0 233d 3c65 633d 1698 85bd d161 dc3d
00000270: 8843 5b3d c23b 133d 7da2 12bd 8c78 e9bc
00000280: 18c2 1fbd a6be 1abc ef28 aabc d279 be3d
00000290: 887d a8bd faa8 5abd 40db 8c3d c09a d23a
000002a0: 936a 9dbc d65f 213b 517c 7cbd 284a 93bd
000002b0: 0171 14bd 1c2a 30bd a565 86bc 55aa 15bc
000002c0: 30d9 803b de44 dfbd 0575 e7bd a6f2 d53d
000002d0: 3b62 883c aa00 94bd 524c c2bd 65b0 853c
000002e0: 8c4e 323d 8cb9 9dbd bc43 353d 294c 243d
000002f0: 47ef 5c3d a366 543d 582d e0ba 5244 fc3d
00000300: 1777 b63d da29 4f3d 75d4 0a3e db66 e73c
00000310: 09fe ae3d 343d f83d 6ed0 f43d 3fa9 323e
00000320: f965 c73d 804d 533e 1f68 6fbd c477 873d
00000330: 6a88 043e 816b afbc 67e9 893d e3db 0c3d
00000340: b885 a13b cdb1 973e 7316 fa3d fabc 143e
00000350: 3abe dd3d 7ecb 083e b3a8 663d 2c27 e1bd
00000360: f03d 7d3d 3dfe 063d b600 f53d cf2d 983d
00000370: eba3 8d3c abbe 62bd 08d8 923c 62fd 93bd
00000380: c340 91bd 86d8 af3c a86e 563d 8395 8abd
00000390: 5982 faba bc0e 7cbb f333 313d 4191 22bd
000003a0: 89cd d03b 82c8 e13c 5358 aebd 2f4b 593c
000003b0: c9af 953d a545 7d3c f8e8 3a3c a05c c4bc
000003c0: 6185 c83d f3b4 5e3d 5ad4 523b b347 beba
000003d0: 12ea 4f3d b19a 233d 3e19 d53d 214c e63d
000003e0: f138 b2bd 6290 3f3d 40c7 8e3d ab1e 3abd
000003f0: cfc2 573b bce3 e63c 491a 54bd fef8 473e

weight f4 [128, 324]
-0.031003455 -0.031233056 -0.019493716 0.033190727 0.12619457 0.020432027 0.081815444 -0.0019627549
0.024986964 0.0035881137 -0.083417594 -0.11894873 -0.06736747 0.006109049 -0.053287562 -0.009374747
0.015105764 -0.017536292 0.09743324 0.113125764 -0.023824824 -0.053578097 0.010706814 -0.0061551295
0.049455203 -0.0063092927 -0.07245284 0.009851288 -0.0644945 -0.07932791 -0.092570245 -0.035515398
-0.01647542 -0.015490779 -0.0390232 0.035001848 0.0027958532 0.07259844 0.026749248 -0.007226711
0.07008765 -0.0045069936 -0.00643704 -0.06710309 -0.08676461 -0.05092551 -0.039574426 -0.03197809
-0.045312192 -0.055718247 -0.09839914 0.014962834 -0.05778945 -0.010588579 -0.018317183 0.075198695
0.037392654 -0.012211582 0.09086894 0.04651984 -0.05781118 0.0120851565 -0.011176503 -0.07896757
-0.15524998 -0.13581085 -0.1401247 -0.13142519 -0.006509863 -0.053663567 -0.06157358 -0.00626376
0.048963066 -0.046930026 -0.071255066 -0.04197388 0.07537586 0.014002048 0.019880973 -0.053950857
-0.056685984 -0.038314324 -0.14571562 -0.1807645 -0.08511327 -0.079824015 -0.095429085 -0.087446794
-0.13399978 -0.011074383 0.00258455 -0.04742829 -0.11969273 -0.013383343 0.005034077 0.045450658
-0.017394908 0.010803464 -0.059206586 -0.024529153 -0.10683502 -0.16598973 -0.1863672 -0.10020809
-0.11480505 -0.09915529 -0.077137046 -0.021675207 -0.10911619 0.011643451 0.0032484792 -0.023981594
0.05440326 0.015731988 0.026872966 0.026557375 0.057646256 0.02746921 -0.023299618 -0.060030006
-0.10586782 -0.05343369 -0.11897388 -0.09187332 -0.024666475 -0.029855864 -0.0503478 0.036822606
0.11126112 0.07394731 0.005001486 0.030148635 0.06008586 0.15111826 0.09991347 0.08663004
0.113223225 -0.012704046 0.02902768 -0.06511045 -0.024548803 -0.091882914 -0.026568202 0.04205438
0.0021547102 -0.04607981 0.04806987 0.0061208443 0.10843379 0.08601149 0.09499315 0.17166804
0.18246526 0.16691248 0.10549765 0.16683233 0.008301535 -0.07525877 -0.042662695 -0.010902957
0.013001577 0.07617699 -0.009800878 -0.01758472 -0.038005006 -0.03942737 -0.010094325 -0.008016177
0.049195655 0.13570055 0.18233699 0.104978174 0.13518418 0.109429605 0.070852645 0.04688675
-0.0533874 0.033105087 -0.022399636 0.021205837 0.017875377 -0.08913624 0.0023509574 -0.046259124
0.041664936 0.08873135 0.05328989 0.09773556 0.057472736 0.028432982 0.012446985 0.07809883
0.10898938 0.05075007 0.08009718 0.061838906 0.0032918213 0.017641064 0.05056567 -0.03477009
0.015312517 0.053668175 0.011499908 0.0029003199 0.06471897 0.11995662 0.050046906 0.07118323
0.04172833 0.014069348 0.021844594 0.07013466 0.06862204 0.09324103 0.04592705 0.072634384
0.040789835 0.010209509 -0.018311813 -0.044336654 -0.012245845 -0.045241278 0.061814234 0.016365938
0.11050609 0.025659494 0.040654954 0.0037122285 -0.03696438 -0.029462274 0.027939139 0.085802145
0.10767433 0.09003105 0.051744245 0.084441565 0.0020034157 0.039728962 -0.006043958 0.01854757
0.0025650547 0.0304801 0.087454796 0.043722544 0.026392877 0.004535905 -0.06329883 -0.030867908
0.013314769 0.0049699843 -0.005316629 0.020670438 -0.011651589 -0.011167372 0.024671707 -0.027095292
00000000: f5fa fdbc 77dc ffbc 49b1 9fbc 00f3 073d
00000010: 2639 013e 1161 a73c db8e a73d 90a1 00bb
00000020: 76b1 cc3c 8f26 6b3b d8d6 aabd 649b f3bd
00000030: f5f7 89bd 6b2e c83b 0f44 5abd 8a98 19bc
00000040: 2b7e 773c 45a8 8fbc 148b c73d 7bae e73d
00000050: 472c c3bc b574 5bbd a26b 2f3c f8b0 c9bb
00000060: 8a91 4a3d 2fbe cebb 2862 94bd 4c67 213c
00000070: b115 84bd ac76 a2bd 7895 bdbd 9878 11bd
00000080: 76f7 86bc 09cd 7dbc cad6 1fbd 195e 0f3d
00000090: a23a 373b 7eae 943d 3d21 db3c 0cce ecbb
000000a0: 1d8a 8f3d 67af 93bb ceed d2bb 586d 89bd
000000b0: a5b1 b1bd 4497 50bd cb18 22bd 75fb 02bd
000000c0: 4799 39bd d138 64bd 7d85 c9bd ad26 753c
000000d0: a1b4 6cbd b87b 2dbc eb0d 96bc c601 9a3d
000000e0: 0a29 193d 1613 48bc 7f19 ba3d 968b 3e3d
000000f0: 6acb 6cbd d200 463c a71d 37bc c0b9 a1bd
00000100: daf9 1ebe 0012 0bbe d97c 0fbe 5394 06be
00000110: b050 d5bb 54ce 5bbd 9434 7cbd 3a40 cdbb
00000120: 7f8d 483d b339 40bd 2dee 91bd ceec 2bbd
00000130: a95e 9a3d d968 653c 6cdd a23c 93fb 5cbd
00000140: 902f 68bd 7bef 1cbd 7a36 15be 541a 39be
00000150: de4f aebd c67a a3bd 5370 c3bd 4e17 b3bd
00000160: 3d37 09be 5471 35bc 8e61 293b 2b44 42bd
00000170: 7621 f5bd cf45 5bbc e6f4 a43b 782a 3a3d
00000180: c47f 8ebc 0301 313c 9b82 72bd 5df1 c8bc
00000190: 52cc dabd 36f9 29be 0bd7 3ebe e639 cdbd
000001a0: e91e ebbd ee11 cbbd 07fa 9dbd 3490 b1bc
000001b0: 4f78 dfbd 2cc4 3e3c 70e4 543b 0c75 c4bc
000001c0: f4d5 5e3d 5fe0 803c b224 dc3c da8e d93c
000001d0: 7b1e 6c3d 1c07 e13c d7de bebc 06e2 75bd
000001e0: 3ad1 d8bd 49dd 5abd 94a8 f3bd 1428 bcbd
000001f0: 5911 cabc 4994 f4bc 7f39 4ebd 4dd3 163d
00000200: dfdc e33d b071 973d 81e3 a33b 45fa f63c
00000210: 971c 763d bfbe 1a3e 6f9f cc3d 176b b13d
00000220: 94e1 e73d a224 50bc 75cb ed3c a158 85bd
00000230: 921a c9bc 1c2d bcbd 8fa5 d9bc 3741 2c3d
00000240: 0a36 0d3b 2fbe 3cbd e9e4 443d 5d91 c83b
00000250: 8912 de3d cb26 b03d c58b c23d bfc9 2f3e
00000260: 2cd8 3a3e 1beb 2a3e 270f d83d 18d6 2a3e
00000270: 2903 083c 4521 9abd 14bf 2ebd 51a2 32bc
00000280: 9104 553c af02 9c3d dd93 20bc d50d 90bc
00000290: 23ab 1bbd 987e 21bd ab62 25bc 4956 03bc
000002a0: 6281 493d 16f5 0a3e 8cb6 3a3e ccfe d63d
000002b0: b96d 0a3e a11c e03d 311b 913d 520c 403d
000002c0: bfac 5abd 3399 073d 717f b7bc ddb7 ad3c
000002d0: 626f 923c 108d b6bd 8512 1a3b 357a 3dbd
000002e0: daa8 2a3d c8b8 b53d 8046 5a3d 9529 c83d
000002f0: 8868 6b3d 49ec e83c 70ee 4b3c 48f2 9f3d
00000300: d335 df3d 4edf 4f3d fe09 a43d cb4a 7d3d
00000310: 99bb 573b fe83 903c f31d 4f3d 156b 0ebd
00000320: 5ae1 7a3c 29d3 5b3d 1c6a 3c3c 4b13 3e3b
00000330: 618b 843d d1ab f53d fcfd 4c3d 83c8 913d
00000340: 53eb 2a3d 1f83 663c 6ff3 b23c c3a2 8f3d
00000350: b689 8c3d 27f5 be3d 011e 3c3d 56c1 943d
00000360: 3e13 273d c945 273c a802 96bc 5a9a 35bd
00000370: cca2 48bc eb4e 39bd ec30 7d3d dc11 863c
00000380: 0451 e23d dc33 d23c cf85 263d dc48 733b
00000390: f667 17bd de5a f1bc 9fe0 e43c 09b9 af3d
000003a0: 5c84 dc3d 3362 b83d c6f1 533d b3ef ac3d
000003b0: bd4b 033b d6ba 223d 650c c6bb 13f1 973c
000003c0: 7a1a 283b 67b1 f93c 801b b33d 6916 333d
000003d0: e035 d83c eea1 943b d1a2 81bd b2de fcbc
000003e0: 3026 5a3c 40db a23b 1e37 aebb 0d55 a93c
000003f0: 4ee6 3ebc 5af7 36bc 521c ca3c f2f6 ddbc

bias f4 [128]
-0.032410994 -0.024463184 -0.017223457 -0.02706524 0.08721895 -0.04531269 -0.0065919487 -0.02648638
-0.036711417 -0.024252525 -0.014362853 0.041241948 -0.023760345 0.024594069 -0.041723788 -0.06371335
-0.025154984 0.006329913 -0.055295892 -0.015516122 0.015623033 -0.060076777 0.030520227 -0.07567375
-0.03592893 -0.054792523 -0.0016130434 -0.026095435 0.010209965 0.060998753 0.037655495 0.0034802298
-0.058544643 0.009575823 0.009952755 -0.077073894 -0.05197517 0.004888448 -0.034006096 -0.007941388
-0.03317445 -0.048915464 -0.034176648 0.035555914 -0.003107153 -0.054198187 -0.07928469 0.023322731
-0.051894158 0.0043866863 0.039217934 0.098705046 -0.0755999 -0.03152321 0.060436763 -0.022478301
-0.0044479435 -0.0012484648 -0.029804215 0.01503342 -0.073767856 0.013087701 0.103828356 -0.019036658
-0.010734889 0.0011442901 -0.006439533 -0.074108265 0.01903464 -0.04272027 -0.00046719515 -0.034594446
-0.01829008 -0.0254853 -0.06857278 -0.045333225 0.0062361686 0.009878718 -0.008417978 -0.0791405
-0.053329755 -0.057945713 0.011993149 -0.0061430424 -0.007919315 -0.016033337 0.011694007 0.021786008
0.108956926 0.022485178 -0.0032854686 -0.038103797 -0.0141209075 0.045161072 0.013972287 -0.039439924
0.084528685 -0.06801088 0.015296688 -0.06819048 0.0010586022 -0.04159062 -0.07568616 0.0977186
-0.053517487 -0.019292586 -0.02584294 -0.043845423 0.1347277 -0.054874394 0.08841281 0.02366904
-0.049973484 -0.009485685 0.053000387 0.0013331805 -0.023380559 -0.06795152 0.0048666024 -0.045718014
0.0019605572 -0.028281743 -0.008481391 0.014866958 -0.06726712 -0.03708357 0.029118054 0.054363694
00000000: 64c1 04bd 0467 c8bc 3518 8dbc ecb7 ddbc
00000010: d99f b23d cd99 39bd 4601 d8bb f7f9 d8bc
00000020: b65e 16bd 3bad c6bc 2c52 6bbc 51ed 283d
00000030: 0ea5 c2bc 8079 c93c 90e6 2abd 257c 82bd
00000040: d311 cebc 296b cf3b f27d 62bd 5537 7ebc
00000050: c0f7 7f3c 1113 76bd 8e05 fa3c d7fa 9abd
00000060: 372a 13bd 206e 60bd c16c d3ba 18c6 d5bc
00000070: b247 273c d4d9 793d a63c 1a3d 9114 643b
00000080: 82cc 6fbd eae3 1c3c e110 233c ebd8 9dbd
00000090: eae3 54bd 462f a03b fa49 0bbd 981c 02bc
000000a0: efe1 07bd 955b 48bd d0fc 0bbd 14a3 113d
000000b0: 61a1 4bbb ebfe 5dbd 0360 a2bd 500f bf3c
000000c0: f88e 54bd 31be 8f3b fca2 203d df25 ca3d
000000d0: 1fd4 9abd 7b1e 01bd 8a8c 773d 6a24 b8bc
000000e0: 0ec0 91bb 87a3 a3ba f827 f4bc bc4e 763c
000000f0: 9a13 97bd cc6d 563c f6a3 d43d c4f2 9bbc
00000100: 63e1 2fbc 01fc 953a b802 d3bb 13c6 97bd
00000110: 89ee 9b3c 73fb 2ebd dff1 f4b9 e8b2 0dbd
00000120: 14d5 95bc 8cc6 d0bc e36f 8cbd 55af 39bd
00000130: c658 cc3b 59da 213c 8feb 09bc 6a14 a2bd
00000140: 4d70 5abd 7c58 6dbd ea7e 443c 934b c9bb
00000150: 04c0 01bc 5858 83bc 3898 3f3c 9278 b23c
00000160: cf24 df3d d632 b83c 0451 57bb ba12 1cbd
00000170: 615b 67bc d1fa 383d 05ec 643c c28b 21bd
00000180: 601d ad3d 4a49 8bbd f69e 7a3c 73a7 8bbd
00000190: ccc0 8a3a ed5a 2abd 5801 9bbd b020 c83d
000001a0: 2735 5bbd 7c0b 9ebc 93b4 d3bc 4297 33bd
000001b0: 0ff6 093e f9c3 60bd c611 b53d 93e5 c13c
000001c0: ffb0 4cbd d969 1bbc ef16 593d 1dbe ae3a
000001d0: 9688 bfbc 2b2a 8bbd 0578 9f3b d042 3bbd
000001e0: b17c 003b 1daf e7bc 88f5 0abc 8b94 733c
000001f0: 58c3 89bd f1e4 17bd fc88 ee3c 77ac 5e3d

weight f4 [3, 128]
0.07773809 0.074525885 -0.026332572 -0.02243412 0.14884691 0.048300687 -0.006824486 0.05608877
0.0842725 0.07424051 -0.029154923 -0.09481324 0.056357753 -0.032819808 0.038334377 0.029302511
0.011656215 -0.08319641 0.02067264 -0.057571445 -0.03610213 -0.044792287 -0.0039822413 -0.035325848
0.0464534 -0.032048855 0.014292799 -0.027090406 0.030533027 0.008211697 -0.14422779 0.047407437
0.017584309 0.030779246 -0.029530115 0.017115623 0.03591955 -0.10860253 -0.027392412 -0.013257745
-0.016437296 0.035928506 -0.011592312 -0.014441786 -0.06773522 -0.026624491 0.032117713 -0.11229656
0.010647135 0.07907027 -0.06801632 -0.019858638 0.04117869 0.04850514 0.001214527 0.004850486
-0.21456085 -0.038622636 0.05827164 0.0028035287 -0.015355619 -0.036566034 0.04266511 -0.07621759
0.0147537915 0.03757197 0.04642533 -0.01723792 0.016732872 -0.033445068 0.018901655 0.03275599
0.04970616 0.03293135 0.021198966 0.027481025 -0.023037232 -0.067506 0.015483998 0.043001708
-0.022409145 -0.036185082 0.016598342 0.025858007 -0.007479092 -0.057264995 -0.058442738 0.021235576
0.06428845 0.024269296 -0.029864518 -0.052572083 -0.112124234 -0.049881175 -0.050063696 0.04192628
-0.02107812 0.012366611 0.006278653 -0.012188494 0.0087306425 0.0047752615 0.013400331 -0.06482997
0.00040734667 -0.049540587 -0.040099163 0.0025035844 -0.15146229 -0.05009913 0.08971315 -0.037221726
0.05341383 0.032914747 -0.09882691 -0.0232455 0.09829618 -0.01075765 0.023078075 0.0405868
-0.088818006 0.07878548 0.057883844 0.010747532 -0.024478698 -0.0701271 -0.040431608 -0.0311878
-0.2109015 0.046445377 0.025458768 0.056002315 -0.17119086 -0.037383124 -0.020463081 0.049514703
0.057224542 0.08646294 -0.009592697 -0.082964204 0.03923445 -0.0721097 -0.0055959695 -0.044224206
0.01949922 -0.09386456 0.012195579 0.021136992 0.024144972 -0.08102388 0.019787686 -0.056915388
0.011714057 -0.041346777 -0.048103623 0.06759032 0.0350617 -0.17838235 -0.13957776 -0.01786933
-0.022249162 -0.023046236 -0.048601206 0.0123601 0.052221898 -0.10341597 -0.015464543 0.008900378
-0.0339172 0.0017714789 -0.05054007 0.04072271 -0.053189322 -0.036098734 0.116253175 -0.09739973
0.012809357 0.06626549 -0.11106242 -0.06813171 0.05870916 0.0782921 -0.07263572 -0.010862634
0.17091057 -0.005308293 0.027784238 0.029796695 0.010764399 0.024223994 -0.07886937 0.048844587
0.035415202 0.0012925804 -0.01468057 -0.05026429 0.08794781 -0.05427211 0.0348959 -0.005916532
0.008221923 0.045227453 0.0451533 -0.024180472 -0.061181385 -0.0644395 0.0010312698 0.049959585
0.03109466 -0.01706787 -0.009520857 0.034306634 -0.11451536 -0.0670889 -0.021685064 0.012717538
-0.14340246 0.013458875 -0.12540938 0.12091377 -0.094488405 -0.032912657 -0.016288776 0.05365624
-0.18173876 -0.0007097851 0.009869979 -0.00067581295 0.017681954 0.0526525 -0.00400572 -0.11547365
-0.101392604 -0.040492386 -0.050002716 0.057635646 -0.03180103 0.021727206 -0.15844342 0.0013272618
0.055136506 0.0636188 -0.12600794 0.013304641 -0.108576305 -0.023206957 0.005773425 -0.011524005
-0.043618973 0.06376631 0.055514306 0.009056171 0.057356 -0.024753777 0.06931704 -0.05687937
00000000: 2635 9f3d 07a1 983d 68b7 d7bc c2c7 b7bc
00000010: 536b 183e f1d6 453d f09f dfbb 57bd 653d
00000020: 0f97 ac3d 690b 983d 4ed6 eebc 722d c2bd
00000030: 63d7 663d 106e 06bd 8204 1d3d d20b f03c
00000040: b6f9 3e3c e162 aabd ab59 a93c 09d0 6bbd
00000050: d4df 13bd 1e78 37bd 767d 82bb d6b1 10bd
00000060: ec45 3e3d a945 03bd 582c 6a3c b3ec ddbc
00000070: 6620 fa3c 5b8a 063c 73b0 13be 4d2e 423d
00000080: f80c 903c c224 fc3c 24e9 f1bc 1036 8c3c
00000090: 6120 133d 016b debd 0d66 e0bc 0337 59bc
000000a0: 82a7 86bc c529 133d aeed 3dbc 3e9d 6cbc
000000b0: c3b8 8abd 9b1b dabc dd8d 033d bdfb e5bd
000000c0: 5271 2e3c 98ef a13d 244c 8bbd 95ae a2bc
000000d0: fcaa 283d 53ad 463d c330 9f3a d3f0 9e3b
000000e0: d7b5 5bbe c532 1ebd 3eae 6e3d 68bb 373b
000000f0: 2296 7bbc 44c6 15bd 9cc1 2e3d f817 9cbd
00000100: e3b9 713c 11e5 193d 7d28 3e3d 8a36 8dbc
00000110: 6013 893c b2fd 08bd a5d7 9a3c 252b 063d
00000120: b098 4b3d 06e3 063d 74a9 ad3c e31f e13c
00000130: 94b8 bcbc 9640 8abd 98b0 7d3c 8f22 303d
00000140: 6293 b7bc cf36 14bd 3ff9 873c 2cd4 d33c
00000150: 2c13 f5bb b38e 6abd a761 6fbd 3bf6 ad3c
00000160: aaa9 833d 67d0 c63c 6fa6 f4bc d355 57bd
00000170: 64a1 e5bd 3450 4cbd 970f 4dbd e4ba 2b3d
00000180: 06ac acbc 539d 4a3c 29bd cd3b 40b2 47bc
00000190: f80a 0f3c cc79 9c3b 108d 5b3c 93c5 84bd
000001a0: 2591 d539 12eb 4abd 053f 24bd 2d13 243b
000001b0: ee18 1bbe bf34 4dbd 87bb b73d cf75 18bd
000001c0: 76c8 5a3d 9dd1 063d c365 cabd 596d bebc
000001d0: 824f c93d db40 30bc 3b0e bd3c 583e 263d
000001e0: 37e6 b5bd 485a a13d 9c17 6d3d 6b16 303c
000001f0: 8d87 c8bc cc9e 8fbd 9d9b 25bd 8f7d ffbc
00000200: 90f6 57be 823d 3e3d e88e d03c af62 653d
00000210: a84c 2fbe 0c1f 19bd 31a2 a7bc eecf 4a3d
00000220: 4864 6a3d 7b13 b13d b02a 1dbc 23e9 a9bd
00000230: 4db4 203d 40ae 93bd 655e b7bb 7124 35bd
00000240: d4bc 9f3c 103c c0bd f7cf 473c 7c27 ad3c
00000250: adcb c53c d9ef a5bd c919 a23c 1c20 69bd
00000260: 51ec 3f3c 3d5b 29bd 4e08 45bd cb6c 8a3d
00000270: db9c 0f3d dda9 36be 79ed 0ebe b362 92bc
00000280: e043 b6bc 76cb bcbc 0f12 47bd 0482 4a3c
00000290: a1e6 553d c1cb d3bd ff5e 7dbc e4d2 113c
000002a0: c3ec 0abd f830 e83a 1b03 4fbd dbcc 263d
000002b0: 0cdd 59bd 44dc 13bd 2516 ee3d 8279 c7bd
000002c0: 56de 513c 34b6 873d b274 e3bd a388 8bbd
000002d0: 0479 703d 9c57 a03d 09c2 94bd 30f9 31bc
000002e0: 2e03 2f3e 30f1 adbb c59b e33c 3318 f43c
000002f0: 295d 303c 6671 c63c 4486 a1bd 4311 483d
00000300: 880f 113d cd6b a93a c686 70bc eee1 4dbd
00000310: fb1d b43d 6f4c 5ebd 01ef 0e3d 78df c1bb
00000320: 3fb5 063c 6c40 393d abf2 383d 2016 c6bc
00000330: 5599 7abd dbf8 83bd ac2b 873a 6ca2 4c3d
00000340: 3aba fe3c ebd1 8bbc 5efd 1bbc 1d85 0c3d
00000350: 0787 eabd e865 89bd e0a4 b1bc 385d 503c
00000360: 18d8 12be 9d82 5c3c 516b 00be a3a1 f73d
00000370: 2383 c1bd 6ccf 06bd 0a70 85bc a5c6 5b3d
00000380: ba19 3abe df10 3aba b1b5 213c 0a29 31ba
00000390: bfd9 903c 26aa 573d 6a42 83bb 737d ecbd
000003a0: eda6 cfbd 58db 25bd a6cf 4cbd 5b13 6c3d
000003b0: cc41 02bd 41fd b13c fe3e 22be 84f7 ad3a
000003c0: d1d6 613d 934a 823d 3a08 01be b5fb 593c
000003d0: 415d debd 841c bebc 002f bd3b 2ecf 3cbc
000003e0: cfa9 32bd e997 823d f862 633d 5660 143c
000003f0: 20ee 6a3d 6fc8 cabc 18f6 8d3d 58fa 68bd

bias f4 [3]
0.021617351 -0.013511866 -0.06457614
00000000: df16 b13c e060 5dbc 7f40 84bd
